agent2_checkpoint_actor.pth (torch, 144031 bytes, 6 tensors)

fc1.weight f4 [200, 24]
000000 89 7f a1 3c 91 d4 85 3d 49 9c cf bd 55 a1 dd 3b
       0.019714134 0.065346844 -0.10137231 0.006763617
000010 4a e3 a5 3c bd 4f 12 3d 0a e8 2d bd f5 88 b1 bd
       0.020249981 0.035720576 -0.042457618 -0.086687006
000020 a7 41 08 bc b7 23 7a bc 2e ed 97 bd 1e a3 69 bc
       -0.008316434 -0.015267304 -0.07418285 -0.014260082
000030 32 fa 20 3d d4 8c 02 3d 01 26 75 bd b6 fd 29 3c
       0.039301105 0.031872585 -0.059850696 0.010375431
000040 31 45 b8 bd cb 74 8b bd 9c d6 d5 bc 60 95 59 3d
       -0.08997572 -0.06809386 -0.02610331 0.05312097
000050 9d 94 9a 3d c1 72 62 bd 1f 0a 85 3d 9d 24 c1 bc
       0.07547877 -0.05528522 0.06496071 -0.023577029
000060 7c 95 35 3c b6 d1 89 bd 1a 8c fb bd f0 26 d9 3d
       0.011083003 -0.06729452 -0.122825816 0.1060313
000070 67 df 6a bd 07 c9 7f 3d eb fc 73 bd 9c 1f af 3d
       -0.05734196 0.062447574 -0.059567373 0.08550951
000080 f3 e9 1d 3d 8e c7 1f bb da 96 f7 3c 9f 6b 0d 3e
       0.03855319 -0.0024380418 0.030223299 0.13810585
000090 e6 64 7b 3b 85 ea c1 3d 1a 3a cc 3c b9 fe ad 3d
       0.00383597 0.09468559 0.024930049 0.0849585
0000a0 9d d1 3e 3d e7 7a 5a 3e 16 43 b2 3d e1 aa 36 3e
       0.04658662 0.21335946 0.08704202 0.17838623
0000b0 63 33 91 3d 1b 03 ca 3c 16 7f 69 3d c7 c4 21 3e
       0.07089879 0.024659684 0.057005964 0.15797721
0000c0 69 57 0a 3d 56 25 9a bd a3 c2 32 3d b0 0e e3 bd
       0.033774767 -0.075266525 0.04364265 -0.11086786
0000d0 64 41 ef 3d 38 b2 c4 bd 05 1a 66 3d 62 ed db bd
       0.11682394 -0.09604305 0.056177158 -0.107386366
0000e0 93 e1 96 bd 74 91 4f bd 9a 44 dd 3b 3e d8 a1 ba
       -0.073672436 -0.050675824 0.0067525627 -0.001234777
0000f0 60 32 64 3e 64 f4 0a 3d 48 96 ee bb 71 43 ba bd
       0.22284842 0.033924475 -0.0072810985 -0.09094895
000100 49 79 d3 3c 8d fa 29 3c 0d c6 08 bd fc 44 1a 3e
       0.02581467 0.010374677 -0.033392 0.15065378
000110 5b bc 3a 3e 05 67 9e bd 46 0b a5 3d 22 f2 3d 3e
       0.18235914 -0.07734493 0.08058791 0.18549398
000120 41 bf 88 3d 7c b9 fa 3d a0 60 98 bc 62 bd 78 be
       0.06677104 0.122424096 -0.018600762 -0.24290994
000130 16 39 18 3d e9 7b 5b bd 26 58 cc bc 72 e8 ef bd
       0.037163816 -0.053584967 -0.024944376 -0.11714257
000140 ba 0f 0f 3d 20 86 0d 3e 17 29 a6 3d 9e 85 9e bd
       0.034927107 0.13820696 0.08113306 -0.07740329
000150 1c 77 68 3b a5 df b6 bd 8f 1c 69 3d d0 89 03 be
       0.0035471385 -0.089293756 0.056912 -0.1284554
000160 9a 04 dd 3d a6 95 86 3d b6 ea 6e 3d cf f4 6d bd
       0.10791893 0.06571512 0.058329307 -0.058094796
000170 36 06 91 bd 32 e5 18 be fd 49 39 bc 17 7c 03 be
       -0.07081263 -0.14931181 -0.011309144 -0.12840305
000180 fd 9b f2 3c e3 52 7d bd d2 ed 9d bd 89 49 28 bd
       0.029615397 -0.061846625 -0.07711376 -0.041085754
000190 49 27 dd bc 28 b2 0a 3e 2c 97 82 3b 1d 3d 5f 3d
       -0.026996272 0.13544524 0.0039853062 0.05450164
0001a0 90 96 c1 3c cd ce 07 bd 3d 7f cf 3c c4 ee cb 3d
       0.023631364 -0.033156205 0.025329227 0.0995765
0001b0 32 37 d4 3d 6f e3 ec 3d 39 24 29 bd 88 0d 93 3d
       0.1036209 0.11566817 -0.04129431 0.07180315
0001c0 4f 98 eb bd 9d aa 3d bd 4f 89 c0 bc 71 c8 8f bd
       -0.1150366 -0.046305288 -0.023502974 -0.07020653
0001d0 69 73 bf 3d 55 9b 85 3e a7 86 ea 3c 21 21 d5 3c
       0.093481846 0.2609507 0.02862866 0.026016774
0001e0 8e 96 13 3d 2e 00 2a be 99 69 e9 bc d1 42 87 bd
       0.036032252 -0.16601631 -0.028492736 -0.06604541
0001f0 08 13 b5 3d aa ee 91 be 3e d8 65 bd 63 3e 21 be
       0.088415205 -0.285024 -0.056114428 -0.15746455
000200 66 3a 3d 3d bd 7f 35 be 2e ee 35 bc 84 f3 2f be
       0.04619827 -0.1772451 -0.01110415 -0.17182738
000210 e7 f3 14 3c 65 6c 1a be 5b 82 d3 bc 22 74 61 bd
       0.009091354 -0.15080412 -0.025818994 -0.055042394
000220 36 50 d3 3c ae 79 3f be ea 1c 9a 3d 86 39 ac bd
       0.025795083 -0.18698761 0.07525046 -0.08409409
000230 ed b8 92 bd c1 7f 50 be bc 08 cf bc b2 80 bc bd
       -0.07164178 -0.20361234 -0.02527272 -0.09204234
000240 f1 ef 36 3d cc de b4 3e a5 5f 19 3d 59 b6 f8 3b
       0.04466242 0.3532623 0.03744473 0.007590097
000250 b5 3b d8 bd 7e a2 af bd d5 82 9a bd 23 24 03 3d
       -0.10558263 -0.08575915 -0.075444855 0.032016885
000260 2a 86 05 3d f3 67 bb 3e 77 ce 49 bc 1d 9f ea bd
       0.032598652 0.36602744 -0.012317291 -0.1145613
000270 25 66 0e bd 3b 4d 04 3d c1 a6 b8 bd 3f 52 a3 bd
       -0.03476538 0.032300215 -0.09016181 -0.079746716
000280 01 e3 0d 3c c1 00 84 3e 77 96 1c bd 53 d9 58 be
       0.008660079 0.25781825 -0.038229432 -0.21176653
000290 7f 1f 2f 3d 77 b3 3c bc 0d e0 b6 3c 03 86 8e be
       0.042754646 -0.011517397 0.022323633 -0.27836618
0002a0 31 2f 14 3d 88 26 90 3d 38 0a 33 3c 78 a5 30 bd
       0.036177818 0.07038599 0.010927729 -0.043126553
0002b0 d3 31 15 be ee ba 6a bc 0e ae c5 bd f5 39 ce 3b
       -0.14569788 -0.014326794 -0.09652339 0.00629353
0002c0 b8 e1 95 bd 2c 5d f3 3d 3f 24 c2 bc df 7f 10 be
       -0.07318443 0.118830055 -0.023698924 -0.14111279
0002d0 86 28 f2 bd db e2 be bd 01 71 3e 3c c4 c1 32 bd
       -0.118241355 -0.09320613 0.011623622 -0.04364182
0002e0 9b 59 82 bd e0 6d fc 3d bb 80 75 3d bc 0c af bd
       -0.06364747 0.123256445 0.05993722 -0.08547351
0002f0 4f d0 0e be 5f 04 17 be e0 ae 85 bd e0 63 43 be
       -0.13946651 -0.14747761 -0.065274954 -0.19081068
000300 00 5f 40 3c 02 4c 87 3b 44 53 e0 ba 5c eb 00 3e
       0.0117414 0.004128934 -0.0017114659 0.12589782
000310 03 07 72 3d ca a8 aa 3d a0 f2 e4 3b 53 39 f9 3c
       0.05908872 0.08332975 0.006986931 0.030422842
000320 b9 c4 92 bd 66 5d 8c 3c 48 56 7d bd c5 a8 1d bd
       -0.07166428 0.01713438 -0.061849862 -0.03849103
000330 8e 16 9f 3c 7d c8 d3 bd 3c 46 3e bc 9b 38 7c 3c
       0.019419935 -0.103409745 -0.011613425 0.015394355
000340 80 3e 9c bd 16 53 b5 b8 09 36 c1 bd 6d d1 2e 3d
       -0.076291084 -8.6462285e-05 -0.094341345 0.042680193
000350 1d 77 7e bd 0f 0c 8c be 66 09 13 bd 13 43 08 bd
       -0.062125314 -0.2735295 -0.035897635 -0.033267092
000360 5f 15 03 be e3 af 2e be ed 58 94 bd 68 09 a7 ba
       -0.12801121 -0.17059283 -0.07243524 -0.0012743892
000370 66 64 72 bd a9 e5 fb bc 03 7b fc bc 42 88 ae bc
       -0.05917778 -0.030749159 -0.030820375 -0.021305207
000380 5b 91 24 bc 5d a9 aa bd 0b f7 4a 3d 37 69 1e be
       -0.010044421 -0.08333085 0.049552005 -0.15469824
000390 1a 9b e0 bd 17 ec 10 3e 23 6d 87 bd 15 14 1d be
       -0.10967083 0.14152561 -0.06612613 -0.15339692
0003a0 5b 40 16 bd b7 ce 3a be 96 28 2b 3d e8 f2 fe bd
       -0.036682468 -0.18242918 0.041786753 -0.124486744
0003b0 52 dd 80 bd 64 04 a6 3e 4d 6e b9 bc 5d fe 38 be
       -0.062922135 0.32425225 -0.022635603 -0.18065782
0003c0 5f 57 4a 3d 77 53 ee bd c1 93 70 bd 0d 6e 03 3c
       0.04939973 -0.116370134 -0.05873466 0.008021844
0003d0 3b 8a d3 3b 15 93 0f be 31 79 5e bd 5c b5 18 3d
       0.0064556873 -0.14020951 -0.054314796 0.037282333
0003e0 40 c6 2e 3c f0 51 25 be 27 ad 0f 3e bb 94 e9 3d
       0.010667384 -0.16144538 0.14030896 0.11405321
0003f0 df 8e fa bc d5 ca ec bc 1e 8f a3 3c 59 19 a8 3c
       -0.030585704 -0.028905312 0.019965705 0.0205199

fc1.bias f4 [200]
000000 49 30 46 3e 67 1e 6d bb 1a 56 15 3e 94 72 e3 bd
       0.19354357 -0.0036181451 0.14583626 -0.111058384
000010 7d f7 fb bd 86 7e 02 be f5 72 bd bb 57 72 0f bd
       -0.12303064 -0.12743577 -0.005781526 -0.035021152
000020 06 a4 73 3e cf ce 18 be 75 31 49 be a1 21 e1 bb
       0.23793039 -0.14922641 -0.19647773 -0.006870464
000030 b7 ad 75 3e aa b5 2b be ce 8a 0c 3e bb 18 27 3e
       0.23992048 -0.16768518 0.13724825 0.16318028
000040 cf e1 a0 bd cf 71 34 3d 26 e2 cb 3d aa 39 26 be
       -0.078555696 0.04405385 0.09955244 -0.16232935
000050 43 ab 25 bd ff 49 6f 3e f6 b9 0a 3e 60 54 24 bb
       -0.04044653 0.23368071 0.13547501 -0.0025074705
000060 d7 40 85 bc d5 66 32 3e 13 e6 0d 3e f5 5a 25 bb
       -0.01626627 0.1742204 0.13857298 -0.0025231217
000070 9a 05 22 bd a8 27 c7 bd c9 c7 55 bd ed 9c 87 3d
       -0.039556123 -0.09724361 -0.052192483 0.06621728
000080 9c 97 ce bc 6d b9 0b be 37 59 9b 3b 4e 2f 37 3e
       -0.025218777 -0.13644953 0.00474086 0.17889139
000090 33 2b 4f be e7 a4 b2 bd 1f e0 48 3e ee 94 6f 3e
       -0.20231323 -0.08722859 0.19616745 0.23396656
0000a0 26 a2 9e bd 28 de 08 be 1c 6e 08 3d c2 c0 76 3e
       -0.07745771 -0.13365996 0.033308133 0.24096969
0000b0 28 27 5b bd 69 11 2d bc 40 b5 28 3e cc d5 96 bd
       -0.05350414 -0.010563233 0.16475391 -0.07364997
0000c0 58 90 41 be 9a cd 20 be 58 c1 17 3d 9e 76 7f 3e
       -0.18902719 -0.15703431 0.03704962 0.24947593
0000d0 a3 01 ad 3d 9f d8 1a 3e 49 f2 d3 bb d3 60 af 3a
       0.08447578 0.15121697 -0.0064680916 0.0013380296
0000e0 bf f7 83 bd f6 4f 24 3e ef 75 4e bd 0b 22 c9 bc
       -0.06443738 0.16046128 -0.05040544 -0.024552366
0000f0 0a ed f9 bd a4 d3 27 3d bd a4 53 3e 7a 5b 14 bd
       -0.12203415 0.04097332 0.20668311 -0.03622005
000100 de b6 0c be a1 7c 5e be 8a 95 a3 bd 44 e5 11 3e
       -0.13741633 -0.2172723 -0.07987507 0.14247614
000110 93 c3 30 3e fa fe 35 3d 22 a1 b4 3d e8 c2 03 3e
       0.17262106 0.044432618 0.08819796 0.1286732
000120 5b 4b 82 3e b8 a0 c9 3d 25 ff 0d 3e 18 ea 42 3d
       0.25448117 0.09845108 0.13866861 0.04758653
000130 4b 10 1e 3e 87 c2 32 bd 83 7e ed bd 26 b9 f6 bc
       0.15435903 -0.043642547 -0.11596396 -0.030117583
000140 2f f1 0b 3d dd 67 cb bd 38 a4 0f be f1 45 1f be
       0.034165557 -0.0993192 -0.14027488 -0.15554024
000150 7a 5a 5e 3e 56 3e 91 bb 37 0b be bd a1 ae 37 3d
       0.21714202 -0.00443248 -0.09279483 0.044844273
000160 b4 50 28 bd 00 f0 0a 3e 4c 20 26 be 91 f8 d2 bd
       -0.04109259 0.13568115 -0.16223258 -0.103013165
000170 54 40 ea bd 21 b0 34 3e 35 6a 32 bd c7 f4 06 3e
       -0.11438051 0.17645313 -0.04355832 0.13179313
000180 e9 d5 7a 3d ce 14 3d be 98 9f 98 bd cf de d7 bd
       0.061239157 -0.18464968 -0.07452315 -0.10540544
000190 2a 25 0d 3d 2f 91 b4 bd e7 ee a8 3d 18 aa 99 bb
       0.03445927 -0.08816754 0.08248692 -0.004689466
0001a0 64 4b f9 bd 05 1c 0c be df 2f 06 be bc e6 27 3e
       -0.12172583 -0.13682564 -0.13104199 0.16396612
0001b0 2a 10 02 3d 85 f9 ac 3d 4b 5b 09 be d5 1d 81 be
       0.031753697 0.084460296 -0.13413732 -0.25218073
0001c0 31 90 af bd 46 3d 97 bd a0 30 d4 be e2 da 41 be
       -0.08572424 -0.07384734 -0.41443348 -0.18931153
0001d0 64 ec 70 be 2f 09 59 be d7 57 f9 3d 34 d7 66 3e
       -0.23527676 -0.2119491 0.12174957 0.22543031
0001e0 bc a3 c8 3d cd 05 ae bd a9 d3 9d 3d 9c 0a 27 3e
       0.09796855 -0.084972 0.077063866 0.16312641
0001f0 7c da 9d 3d 82 83 30 bc 44 76 68 3e 73 a9 21 be
       0.07707688 -0.010773541 0.22701365 -0.15787296
000200 46 11 cb 3d 0c 5a 4c 3e ee da 26 3e 9b f2 bc bd
       0.09915404 0.19956225 0.16294453 -0.09225961
000210 21 67 ce bd d9 bf f8 3d 7a 22 5e 3e b1 39 b6 bd
       -0.10078264 0.12145967 0.2169284 -0.088977225
000220 d1 41 57 3d 3d ea 3e bd d4 65 38 3d 2d 0b 26 3d
       0.052553 -0.046610106 0.045018986 0.040538
000230 5a 0b 23 be 9d ad 24 be 41 96 82 3e 68 26 4d 3e
       -0.15922299 -0.16081853 0.2550526 0.20034182
000240 6e ab 9e bd 55 bd 4d 3e b4 b4 bb 3d 4f 58 12 be
       -0.07747541 0.20091756 0.09165326 -0.142915
000250 61 20 00 be a6 10 cd bd 96 c8 ff 3d 4e ae c5 3c
       -0.12512352 -0.10012941 0.124894306 0.024130967
000260 6d 74 23 3d e1 ff 4a 3e e1 04 48 bd a2 92 98 bd
       0.039905954 0.19824173 -0.048832778 -0.07449843
000270 12 3c 58 be be 3f 7c bd f0 23 05 3e 68 9b 1a be
       -0.21116665 -0.061584227 0.1300199 -0.15098345
000280 3c 1e 5f bd ea 54 13 3d 68 da 39 bd 43 f6 77 bd
       -0.054472193 0.035969652 -0.045374304 -0.060537588
000290 bf 79 03 3e d9 e9 85 bd 8a d4 0b be f0 4a a5 3d
       0.12839411 -0.065387435 -0.13655296 0.08070934
0002a0 56 66 81 bd 13 7d dc 3c 70 8d 9a 3d a7 8b 53 be
       -0.06318347 0.026915109 0.07546508 -0.20658742
0002b0 3b b8 89 3e 7e 6f e1 bd df a7 6d 3d dd 69 ec bc
       0.2689837 -0.110075936 0.058021422 -0.028859073
0002c0 70 63 2f bd 2a 4a 4c 3e e5 a0 42 be 18 c1 55 3d
       -0.04281944 0.19950166 -0.19006689 0.0521861
0002d0 83 8e 29 3e a1 48 87 3e 3f 47 11 be 3f b8 90 3b
       0.1655827 0.264226 -0.14187334 0.004416495
0002e0 fa 89 9f 3e 5c ac 36 be 3a 69 02 3e 0c b3 ac bd
       0.31159955 -0.17839187 0.12735453 -0.08432588
0002f0 46 8f e2 3c be 4c 71 be 0b 1d 3d 3e 6a 43 3c 3d
       0.027656209 -0.23564431 0.1846811 0.04596273
000300 56 77 24 3e ca cb 8f ba e5 78 67 bd 59 a1 52 bc
       0.16061148 -0.0010970768 -0.05651178 -0.012855851
000310 91 fa 4a be 33 1d 82 3b b4 dc 04 3e 5a d8 61 be
       -0.19822146 0.003970766 0.12974817 -0.22055188

fc2.weight f4 [150, 200]
000000 be b9 1e 3e 4e f7 52 3c c3 3b d9 bc cf c5 ea 3c
       0.15500543 0.012876345 -0.026517754 0.028658776
000010 03 5b fe 3c 01 64 2d bc 6a cb 9d bd 01 7b da bc
       0.031049257 -0.010582925 -0.07704814 -0.026669981
000020 69 43 80 3c a2 da 8a 3d 9b 9c b1 bd db ea 2c bd
       0.015657144 0.06779982 -0.08672448 -0.042216163
000030 d3 09 da bc 17 9e b2 3c 87 16 f0 3d df ad 2e bd
       -0.026616013 0.021803899 0.11723047 -0.042646285
000040 65 c5 d5 bd 6e 9e f0 3c ae 25 af 3d 04 3a 39 3c
       -0.10438041 0.02937242 0.08552109 0.011305336
000050 0c 46 11 bd ac 5e 28 bd ad d9 c7 3c 99 a7 93 3d
       -0.035467193 -0.04110591 0.024395788 0.07209701
000060 e4 66 1d 3e 2b b3 68 3d 4e ee 96 bc 6d c8 a8 bd
       0.15371281 0.056811493 -0.01842418 -0.08241353
000070 20 2f 15 be 19 dc c5 3c 03 b5 c3 bc 4f 08 a3 bd
       -0.14568758 0.024152802 -0.023890024 -0.07960569
000080 45 70 19 bc 22 b8 d5 bd 92 2f aa 3c 1e eb 56 bd
       -0.009365146 -0.10435511 0.020774636 -0.05247032
000090 91 d1 84 bb 47 f9 57 be 15 63 03 bd 3d b1 db bc
       -0.0040533026 -0.21091186 -0.032076914 -0.026817912
0000a0 d4 87 11 3d 44 23 e4 3d e1 a2 39 3e c2 ff 0b bd
       0.035529926 0.11139539 0.1812854 -0.034179457
0000b0 93 f6 e2 3c 2c 16 65 be df 07 a9 3d 39 85 f6 3c
       0.027705466 -0.22371739 0.082534544 0.030092822
0000c0 af 97 d7 bc f6 14 ce bd 7f bd b2 bd e8 84 4f 3e
       -0.026317446 -0.10062592 -0.0872755 0.20265543
0000d0 2e fd e2 bd 45 9b d9 bc d9 de 20 3e 12 6c b0 bd
       -0.110834464 -0.026563296 0.1571001 -0.08614363
0000e0 63 6a 9c bd 3d 57 cf bc 22 e7 3c bd cf 6d e6 3d
       -0.07637479 -0.025310153 -0.046118863 0.11251413
0000f0 bc c2 3a 3d 19 bf 1d 3c 5e de 7e bc f0 48 68 be
       0.04559587 0.009628081 -0.015555946 -0.22684073
000100 2b de e5 bd 79 e3 8b bc e7 40 46 3e 40 d8 d3 3d
       -0.11224016 -0.01707624 0.19360696 0.10343981
000110 0a a5 22 be 1f 1a 4c bd 2a 8a 0e be 92 2b 4d 3d
       -0.1588327 -0.0498296 -0.13919893 0.05009038
000120 21 24 b2 3d 04 4e f2 bc 50 6a ec 3d 0f 39 3f bd
       0.08698297 -0.029578216 0.11543715 -0.046685275
000130 aa b5 02 bc 20 a3 51 bd d4 fb f0 bd 69 59 a5 3d
       -0.007977882 -0.05118096 -0.117667824 0.08073694
000140 04 cd 73 bd a7 d0 9e 3d f7 d8 07 be b3 f9 74 3b
       -0.05952169 0.07754641 -0.1326636 0.0037380278
000150 34 cf d5 3c 64 e3 87 bd 51 80 43 3d 0a 25 16 3c
       0.026099779 -0.06635168 0.047729794 0.009164104
000160 60 c1 42 bb b9 fe e9 bd ed 40 2e be ac b1 08 3d
       -0.0029717311 -0.114255376 -0.17016955 0.033372566
000170 d7 60 a1 bd 29 39 2d 3c 29 86 a3 bc 88 a5 be 3d
       -0.07879799 0.01057271 -0.019961433 0.09308916
000180 25 6f 0a 3c 3f 8a e4 3d 7e 21 96 3d d2 01 12 bc
       0.0084493505 0.11159181 0.07330607 -0.008911567
000190 87 ed df 3c 17 39 ae bd 8c ef a4 3d 91 d9 54 3d
       0.027334942 -0.08506983 0.080535024 0.0519653
0001a0 18 b6 90 bd 7b 2e 71 bd f2 f7 02 3e 72 19 d0 bd
       -0.070659816 -0.058882218 0.12789896 -0.10161103
0001b0 ee 19 4f bc c0 33 17 bd 72 ca 25 be 1a 7e 8a 3d
       -0.012640459 -0.036914587 -0.16190508 0.06762333
0001c0 b8 aa 37 3b 48 10 12 3d 0a 2d 22 bd 4e 71 b7 bd
       0.002802534 0.03566006 -0.039593734 -0.08957158
0001d0 1a e0 1b 3e 78 32 85 3c 39 a9 0a 3e e4 04 49 bd
       0.15222207 0.016259417 0.13541116 -0.04907693
0001e0 38 cd 0e be 24 97 20 be c7 88 1e 3e 32 fd bb bc
       -0.13945472 -0.15682656 0.15481864 -0.022947881
0001f0 7f dd 81 3c 89 80 f4 bc 93 de 5a 3c 72 e3 50 be
       0.015852688 -0.029846447 0.01335873 -0.20399264
000200 8f 08 7c 3d 19 de b8 bd 85 7c f8 bd df b5 90 bc
       0.0615316 -0.09026737 -0.12133125 -0.017664848
000210 eb fb ca 3d 89 2c 54 3d d1 94 b2 bc ef c6 09 3e
       0.09911331 0.051800285 -0.021799477 0.13454793
000220 64 14 87 bd 9a 49 eb bc 4c fa fa 3d 7f 14 b9 3d
       -0.06595686 -0.02872162 0.122547716 0.090371124
000230 2c 60 f2 3d 6b f7 01 3d 8a d9 03 3e 92 a1 25 3e
       0.118347496 0.031730097 0.12875953 0.16174915
000240 76 b7 77 3d 47 c5 24 3d 62 8c b4 3c ec 3c 9d 3c
       0.060477696 0.0402272 0.022039596 0.019194089
000250 bb 55 28 bd 77 2f d3 3c 50 b0 ac bd 1c 7e 51 be
       -0.041097384 0.025779469 -0.084320664 -0.20458263
000260 0c ec d6 3b bd f8 85 3a 73 4f 24 bd 67 5d 3e bd
       0.0065589007 0.0010221225 -0.04011483 -0.046475794
000270 49 72 89 bd 5d 09 73 3d 20 b6 b3 bd be 9b 89 3d
       -0.06711251 0.0593351 -0.08774972 0.067191586
000280 40 3b 5f bc f9 79 21 be c1 82 19 3c 5f e9 ce bc
       -0.013624966 -0.15769185 0.009369553 -0.025257764
000290 dd e5 95 bd cd 68 08 3d 1b c1 f6 bd 2b fc bc bc
       -0.073192336 0.03330307 -0.12048551 -0.023069462
0002a0 74 d3 db 3c 12 4a 5e bd 28 9e a0 3d 94 04 c3 3d
       0.026834227 -0.054269858 0.07842666 0.095223576
0002b0 9f 7f ae 3d 38 bf 88 3d 9d 49 99 3d ce f4 22 3d
       0.085204355 0.06677097 0.07484744 0.039784245
0002c0 61 b9 5b bd 1d 50 45 3d 1f cc 46 bd 98 1d 10 bd
       -0.053643588 0.048172105 -0.04853451 -0.035184473
0002d0 80 10 3f bd cc 55 42 bd 59 8b a8 bd d7 2d ef bc
       -0.046646595 -0.047445104 -0.082297035 -0.029196663
0002e0 f3 8d a5 3d 99 3d 8d 3d 92 74 29 bd af 36 6d 3b
       0.08083715 0.068965144 -0.041370936 0.0036195924
0002f0 2b 7a af bc fe d7 0d 3e ec 58 5b bd 5b 11 2d be
       -0.021420559 0.13851926 -0.0535516 -0.16901152
000300 a9 13 10 3d e9 02 c0 3d 42 1c cf 3c a9 9e 50 bc
       0.035175 0.09375555 0.025282029 -0.01273314
000310 ad 5f e6 bb 1b f0 48 3e 0b f0 e8 3c 50 12 e8 bc
       -0.0070304484 0.19622843 0.028434774 -0.028329045
000320 fe 3a 84 3d 2b b7 84 3d d8 71 16 3d 87 37 02 be
       0.06456564 0.06480249 0.036729664 -0.12716495
000330 d2 4e ee 3d a0 6d 1b bc 8f 93 8e bc a8 8e a1 3d
       0.116361275 -0.009486586 -0.017404346 0.07888538
000340 cd 13 88 bc 09 da 85 3d 71 9a 05 3b 82 a1 20 3b
       -0.016611004 0.065357275 0.0020386244 0.0024510329
000350 12 59 a0 3c bd cc 20 be 67 a3 47 3d 5d 4c b2 3d
       0.019573722 -0.15703101 0.048739817 0.087059714
000360 e1 48 3d 3d 28 10 45 bd bd bd 6e 3d 25 b2 48 3e
       0.04621208 -0.04811111 0.058286417 0.19599207
000370 81 9c 1e bd 36 96 6b 3d f5 43 89 3c 05 00 b7 3d
       -0.038723473 0.0575163 0.016756037 0.089355506
000380 83 0d 7b bc 05 84 8d 3c cc cb 1e bd 5a 4f 3d bc
       -0.015323046 0.017274866 -0.038768575 -0.011554563
000390 2b 12 8a 3b f4 3b d9 3d 8d f4 98 bc 71 f8 18 bd
       0.0042135916 0.10607138 -0.018671298 -0.037346307
0003a0 28 76 15 bc 59 5f 89 bd ab 58 bd bc 7a 59 bb 3d
       -0.009122409 -0.06707639 -0.02311357 0.09147926
0003b0 15 3b 43 bd 16 67 8a 39 8b d3 74 3d a4 a2 0b 3d
       -0.047663767 0.00026398216 0.059772056 0.034090653
0003c0 d2 15 cd 3d 9e aa d5 bd 21 08 11 3e 33 d3 86 bc
       0.100139275 -0.10432933 0.14163257 -0.01645813
0003d0 7a a3 59 bd f7 17 e7 bd 62 0a 20 3e b6 5f 65 bd
       -0.05313442 -0.11283868 0.1562896 -0.05599948
0003e0 00 c5 dd bc d2 09 8d bd a1 21 25 3c 07 cf 1e 3e
       -0.027071476 -0.06886639 0.010078819 0.15508662
0003f0 11 fd 46 3c e8 94 67 be ec f3 02 bd 15 ab 5c ba
       0.012145297 -0.22615397 -0.031970903 -0.0008417827

fc2.bias f4 [150]
000000 88 f0 29 bd 9e b1 49 3d fb 59 8d bc 8a a4 0b 3d
       -0.041489154 0.049241655 -0.01725482 0.034092464
000010 0e fa 64 3b a3 9b 23 3d 7a 49 de 3b d1 9f d0 3c
       0.0034939083 0.03994335 0.0067836614 0.025466831
000020 93 4b 37 bd e1 44 15 bd e1 4c e6 3d 20 5c 30 bd
       -0.044749808 -0.03644264 0.11245132 -0.043056607
000030 44 05 39 3d 05 f7 91 3c 22 63 a8 3b 7e af 0b bd
       0.045171037 0.017817983 0.0051387707 -0.03410291
000040 63 71 80 3d 77 0b 50 3d 0f 9c 19 bc e1 cf 8f 3d
       0.06271627 0.050792184 -0.009375586 0.07022072
000050 49 1b 27 3c 1b 1e 29 bd b0 a1 2a 3d 83 d0 3e 3d
       0.010199376 -0.041288476 0.041658103 0.04658557
000060 ab ad 36 3d f5 b4 7d bb 74 b5 cf 3c 0b 12 80 3d
       0.044599216 -0.0038712595 0.025355078 0.062534414
000070 5b 63 c5 3c 40 a5 cf 3d df f9 bc bd 7d d8 cc bc
       0.024095228 0.10138941 -0.09227347 -0.025005573
000080 bc 12 38 3d 7e 60 47 bd 3e b9 ba 3c 23 93 7d 3c
       0.04493974 -0.048676006 0.022793408 0.015476975
000090 95 80 3c 3d 95 85 59 bd 51 48 78 bd c9 2d a3 bd
       0.046021063 -0.05310591 -0.06061584 -0.07967717
0000a0 12 9d 8c 3d 93 fb 80 bd bb 33 8f bd eb b2 e7 3b
       0.06865896 -0.06297984 -0.06992289 0.007070889
0000b0 4e 2c 2c bd be da e5 3d da 4a e0 3d 98 ae 91 bd
       -0.04203444 0.112233624 0.10951777 -0.07113379
0000c0 1d 07 4e bd 34 d0 ca 3c 55 c2 1d bc 91 52 38 bc
       -0.050299753 0.024757482 -0.009628852 -0.011250154
0000d0 9b b6 99 bd a7 3f 97 bc 27 e9 6b ba 4f ee bd 3c
       -0.07505532 -0.018462969 -0.0008999281 0.023184923
0000e0 6b 5c 93 3d 12 f4 91 3d 59 29 3a bd a3 95 49 bd
       0.07195362 0.07126631 -0.04544959 -0.04921497
0000f0 a9 f8 b0 39 23 f1 17 3d bb ee 81 3c b6 fb d7 3d
       0.00033754602 0.0370952 0.015860906 0.10546057
000100 54 b5 0f bd a0 a4 f7 3d ac 7f be bd f2 96 85 3d
       -0.035085037 0.120919466 -0.09301695 0.06522931
000110 eb 10 bc 3c 95 55 00 3d 7b 92 a1 3d 1b 53 1b 3e
       0.022957286 0.031331617 0.07889267 0.15168421
000120 17 73 52 3d f4 6a 96 bc b3 10 c9 bd ee 22 9e 3d
       0.05137929 -0.018361546 -0.09817638 0.07721506
000130 0f d8 98 3c 1c f7 19 3c 43 75 ce bd ec a4 aa 3b
       0.018657712 0.009397294 -0.1008096 0.0052076485
000140 db 9b 36 bc f8 59 71 bd b1 60 8e bd 88 26 e5 bb
       -0.011145557 -0.05892369 -0.06952036 -0.0069931187
000150 04 cf 3b 3d 38 7d 00 3e 80 6c 23 3c a8 07 b8 bc
       0.045851722 0.12547767 0.009974599 -0.022464588
000160 8b 5e 41 bd a6 6f b4 3b 8a 09 76 bd 4b 47 8c 3d
       -0.047209304 0.0055064736 -0.06006769 0.068495356
000170 ec 1a 31 bd 2e d0 3c bd a1 3d 67 3d 74 e7 2e 3d
       -0.043238565 -0.046096973 0.05645526 0.0427012
000180 28 67 06 be ac 81 9b bd c6 a6 da 3c fc ab ee 3c
       -0.13125288 -0.07593092 0.026690852 0.029134743
000190 7e f3 1a 3d 78 1f 8a bd 18 e6 3e 3d d5 6a f9 3d
       0.03782987 -0.067442834 0.046606153 0.1217858
0001a0 32 de 6e 3d 9f bf 4a bc 0f 3f be bd f0 04 22 3d
       0.05831737 -0.012374788 -0.09289371 0.03955549
0001b0 7b e1 0b 3c c7 71 d1 3c 28 79 03 3d 94 08 42 bb
       0.008537645 0.025566949 0.032097965 -0.0029607164
0001c0 58 f1 dc bc ac 7a 08 3d c2 f6 db 3d 40 6b d0 3c
       -0.02697055 0.033320114 0.10740425 0.025441766
0001d0 10 60 a2 3c 13 3e 1c bd 89 2c cb 3c 64 61 bc 3d
       0.019821197 -0.038145136 0.02480151 0.09198263
0001e0 4a ca 43 3d 8a c0 20 3d de 95 a6 bc ae b0 1f bd
       0.04780034 0.03924612 -0.020335134 -0.038986854
0001f0 d8 80 dd 3c 55 ed b0 3d f9 1d a9 bc 35 2f c1 3c
       0.027038977 0.086390175 -0.020644175 0.02358208
000200 9a d4 4f 3c 76 cb 19 bd a0 3b d0 bc 4d 6f 93 bd
       0.0126849655 -0.03754755 -0.025419056 -0.07198963
000210 42 74 f6 3d 0e e8 fd 3c d6 8f 91 bc 17 5a 0c 3d
       0.12033893 0.030994441 -0.017768782 0.034265604
000220 c0 a0 1d 3c 5a 0e 04 3d 3d c3 94 3d 67 9f 15 3d
       0.009620845 0.03224025 0.07263801 0.03652897
000230 d1 19 97 3d ed b4 20 bd cd c7 b1 bd 33 f9 8e bd
       0.07377971 -0.039235044 -0.08680687 -0.06981125
000240 c8 c6 e2 bd f0 2a 49 3d 97 e5 64 bd b5 4d 0f 3d
       -0.11073071 0.049113214 -0.055883016 0.034986217
000250 c0 46 22 bd e2 f2 9f bd
       -0.039618254 -0.07809998

fc3.weight f4 [2, 150]
000000 b0 17 b0 3c e5 f7 48 3d fe 33 6b be e6 e2 3f 3d
       0.02149567 0.049064536 -0.22969052 0.046847247
000010 7a 06 62 3d 11 97 93 be fc f2 e0 bd c1 12 e0 be
       0.055181958 -0.28826192 -0.109838456 -0.43764308
000020 f7 c3 70 bd 05 d2 83 be 8f 9b 71 3c cf 5b 14 be
       -0.058780637 -0.2574617 0.014746561 -0.14488147
000030 4d d0 1e be 4c de 1b be 4a 92 61 3d c0 4e 87 bd
       -0.15509148 -0.15221518 0.055071153 -0.06606817
000040 53 5b b4 be b1 39 51 3d 0b f7 50 be 4f 4c 05 3d
       -0.35225925 0.05108041 -0.2040674 0.032543477
000050 76 c7 d4 be 1c 30 4e be 3d 74 5d 3d e6 88 15 be
       -0.41558427 -0.2013554 0.05406593 -0.14603004
000060 9b 19 48 be 0f f5 72 be 4e 5c 63 be 49 90 83 3d
       -0.19541018 -0.23726295 -0.2220318 0.064240046
000070 29 b0 bd bd 64 40 5a 3e ea 0e fc bd 2a 19 52 be
       -0.092621155 0.21313626 -0.12307532 -0.20517412
000080 95 0e 20 3d e0 00 29 be db 00 90 be 3b ab aa 3d
       0.039076407 -0.1650424 -0.28125653 0.08333441
000090 39 b3 e6 3c 9d 20 19 be de f4 36 be ac de c9 bd
       0.028161632 -0.14953847 -0.17866847 -0.098569244
0000a0 5a c4 21 3d 5e 1b 45 3d db 52 12 bd 9c f9 3b 3e
       0.039493896 0.048121803 -0.03572355 0.18356937
0000b0 27 93 2f be 78 ab 52 3d d9 2a 1d be 54 13 31 be
       -0.17145978 0.051433057 -0.15348376 -0.1729253
0000c0 98 45 78 be fb b9 03 bd 10 08 ce 3d f9 86 af be
       -0.24245298 -0.032159787 0.100601315 -0.34282663
0000d0 23 69 94 bd 07 3d d6 bd 8e 2c 13 3d ce 3f 7a be
       -0.07246616 -0.10460859 0.035931163 -0.24438402
0000e0 b7 90 87 be a5 11 81 3d 30 d6 49 be 12 52 90 be
       -0.26477596 0.063021936 -0.19710612 -0.28187615
0000f0 cb 05 86 3d 8b 4e b1 be af 9f 2f 3d 49 b4 bf 3d
       0.06544074 -0.34630236 0.042876896 0.093605585
000100 ee 88 25 be d3 23 ba 3d e7 73 0c be 69 97 00 be
       -0.16165516 0.09088864 -0.13716088 -0.12557758
000110 ac 23 0c 3e d6 37 2d 3b f8 51 69 3d 70 76 33 3e
       0.13685483 0.0026430986 0.056962937 0.17525649
000120 f5 82 3d be fe e2 22 be f8 b8 25 bb 0c 29 38 3d
       -0.18506987 -0.15906903 -0.0025287252 0.04496102
000130 cc 86 7e be ca 48 32 be 5c 19 59 be 33 fb 21 be
       -0.24856108 -0.1741058 -0.2120108 -0.15818481
000140 0f 37 33 bd a7 9e 70 3e d9 b6 49 be 31 5d 5e 3d
       -0.04375368 0.23498021 -0.19698657 0.054288093
000150 47 43 8d 3d a4 19 1f 3e 7c 91 34 be 1e 3d c6 bd
       0.06897598 0.15537125 -0.17633623 -0.09679626
000160 68 a9 b8 39 06 db 52 3d 17 22 d4 bd fe 56 05 3e
       0.00035221432 0.05147841 -0.103580646 0.13021466
000170 f9 4f 92 bd c2 6d 25 be 91 05 49 3d 2b d0 2e 3d
       -0.0714416 -0.1615515 0.049077574 0.042678993
000180 75 35 53 be 10 76 6b bd be b5 91 3d 90 1f 15 3d
       -0.20625861 -0.05748564 0.07114743 0.036407053
000190 57 ba 0c be 07 fa be bd 65 8b ad 3c c9 d7 a2 3d
       -0.13742958 -0.09325033 0.021184633 0.07951314
0001a0 2f ff 00 bd 29 03 e0 bc e1 9b 14 be aa 55 e7 be
       -0.031493362 -0.027345257 -0.14512588 -0.45182544
0001b0 be 8c 8d 3d 13 18 53 be ed 59 0c be 6f a8 fa bd
       0.0691161 -0.20614652 -0.13706179 -0.122391574
0001c0 97 9c 11 be a6 01 12 be 43 84 49 3d dc 6f 75 3d
       -0.1421989 -0.14258441 0.0491984 0.05992113
0001d0 cd ce 77 3d dd 04 00 be df 6b 71 3d 91 5e 16 3e
       0.060499955 -0.12501855 0.058940765 0.14684512
0001e0 6c 5b 1f 3e 90 39 a2 bd ee 6c a6 3e 6f 84 f1 3c
       0.15562218 -0.079211354 0.32504982 0.029482095
0001f0 d8 5c 35 3d 25 5e d9 3d 3a 96 4c be 5c 6a 3f 3d
       0.044277996 0.1061366 -0.19979182 0.04673229
000200 0d dc 96 bd fa 0a 58 be 03 3f 88 bd 15 f3 cc 3d
       -0.0736619 -0.21097937 -0.066526435 0.10007302
000210 82 ae 2d 3d 18 f2 a3 3d 44 eb 72 be 73 14 cb bd
       0.04240275 0.0800516 -0.23722559 -0.0991601
000220 7a 4e af 3c cd 9c 37 be 4f 80 75 3d 52 04 b5 3d
       0.021399725 -0.17930909 0.059936818 0.08838715
000230 00 f0 70 be a6 2a 8a 3e 71 6e 7d be f5 b3 53 bd
       -0.23529053 0.26985663 -0.24749161 -0.051685292
000240 de 6e 56 be 80 bb 12 3a e9 ba d0 be ca d2 c5 3e
       -0.2094073 0.00055973977 -0.407676 0.38637382
000250 20 af fc bd 98 7b 94 bd 8e 70 38 3e 5d 99 52 3c
       -0.1233809 -0.07250136 0.18011686 0.0128539475
000260 12 c0 1a 3e 81 a6 ac bd 49 7c 00 3f 3d ae ab bb
       0.15112332 -0.084301956 0.50189644 -0.0052392767
000270 3c a4 2d bd fd 69 d8 3b 48 bf de 3d 12 5e 33 bc
       -0.042392954 0.0066044317 0.10876328 -0.010947721
000280 70 05 3f 3e 53 3a 4f be ec 54 e6 3d ba 1a 23 be
       0.18654418 -0.20237093 0.11246666 -0.15928164
000290 5a b9 e9 3d cd 80 40 3e bf 7f 63 be 17 da c1 bd
       0.11412306 0.18799134 -0.222167 -0.094654255
0002a0 83 31 02 3d 4a 86 a0 bd 18 bf 49 be 61 4e cd 3d
       0.0317855 -0.078381136 -0.19701803 0.10024715
0002b0 7a 58 90 bd dc 9a 4d be a1 db 17 be 5b f8 9d 3e
       -0.070481256 -0.20078605 -0.14829876 0.30853543
0002c0 f3 e2 47 be 9b 8e bc bd 51 84 2e be b7 4d 22 3f
       -0.19520168 -0.09206887 -0.17042662 0.63399833
0002d0 0b 45 d9 3d a6 19 dd 3d 4b 42 bd bd 8d 61 3b 3e
       0.10608872 0.10795908 -0.0924116 0.18298931
0002e0 fe e8 90 3d af 01 d9 bc be 72 82 3e 4c 08 6d be
       0.0707569 -0.02649006 0.25478166 -0.23147696
0002f0 ca c4 d9 3b ad a9 9c 3d ba 5c 94 3e 55 c7 2b be
       0.0066457735 0.076495506 0.28976995 -0.16775258
000300 b3 91 38 be 53 2a 01 3f cd f8 29 bd 10 58 f1 bb
       -0.1802433 0.50455207 -0.04149704 -0.007365234
000310 82 0c 08 bd a2 bf b9 3e 37 aa b6 3e 4f 6e f8 bd
       -0.033215053 0.36279017 0.3567674 -0.12130415
000320 3e 96 66 bd bb 32 8b bd 42 67 a0 bb f3 89 40 be
       -0.056295626 -0.067967854 -0.004895122 -0.18802623
000330 81 6d db 3d 66 d1 bd 3d ce ff 04 be a7 97 c4 bd
       0.107142456 0.09268455 -0.12988207 -0.09599238
000340 d3 22 04 be 1a 9a a5 bc 25 ed 74 3e 9f 3e a4 3d
       -0.1290391 -0.020215083 0.23918588 0.080197565
000350 51 db 48 bc fc 33 cf bd 1e 04 51 3d ba 1f e6 3c
       -0.01225932 -0.10117337 0.051029317 0.0280913
000360 de 05 7f bc 9c 09 e7 3d 40 01 8f 3e 21 66 5c 3c
       -0.015565364 0.1128113 0.2793064 0.013452084
000370 f0 41 8b 38 70 78 32 3e c3 87 42 be 18 35 95 bd
       6.640318e-05 0.17428756 -0.18997101 -0.072855175
000380 5f 85 d7 3e 33 69 9b bd bf 6a 38 3d 8f ee 32 be
       0.42093942 -0.075884245 0.045023676 -0.17473815
000390 be b8 f3 3d 83 6b 34 be ea b2 ca 3e cd 42 72 bd
       0.11900471 -0.17619137 0.39589626 -0.059145737
0003a0 df 21 dc bd d1 ac e1 bc 22 b8 b1 3d b2 7e b0 bd
       -0.10748648 -0.027548226 0.08677699 -0.08617915
0003b0 81 e6 80 3b 60 3a 04 3f 6b 05 8f 3b 30 2c 21 bd
       0.003933728 0.51651573 0.0043646595 -0.03934878
0003c0 66 0e 4d 3e 64 c0 ea bc 93 47 01 be 5b 98 a8 3d
       0.20025024 -0.028656192 -0.1262496 0.082321845
0003d0 80 7c 60 bc 04 8e 80 bc 65 cd 50 be 32 96 35 3e
       -0.013701558 -0.015692718 -0.20390852 0.17733076
0003e0 a1 4c 04 be f4 32 3e bd 79 04 3e be 69 94 45 be
       -0.12919857 -0.04643531 -0.18556394 -0.19294895
0003f0 af f8 8c 3e 9f c0 f7 bb 7e 8f 70 3e cb db a2 3e
       0.2753348 -0.007560804 0.23492238 0.31808314

fc3.bias f4 [2]
000000 c7 fb fe bc ab f7 83 3c
       -0.031125916 0.016109308
