agent2_checkpoint_critic.pth (torch, 165855 bytes, 5 tensors)

fcs1.weight f4 [200, 52]
0	0x3e360e04	0.17778784
1	0xbeb3b178	-0.35096335
2	0x3d93ba38	0.07213253
3	0xbe933137	-0.28748485
4	0xbc696cb5	-0.014247109
5	0xbea8a271	-0.32936433
6	0xbd0f6460	-0.035007834
7	0xbe937f43	-0.2880803
8	0x3eda4b9a	0.42635804
9	0xbef2d19c	-0.47425544
10	0x3d2a5109	0.041581187
11	0x38da018a	0.00010395337
12	0xbd83a7a5	-0.0642846
13	0xbe938a2d	-0.28816357
14	0x3d309edf	0.04312026
15	0x3bc0dee2	0.0058859447
16	0x3f02e598	0.5113158
17	0xbea681f1	-0.32521012
18	0x3c9039ea	0.01760574
19	0xbc7f0f0f	-0.015567555
20	0x3caea542	0.021319035
21	0xbed7fb06	-0.42183703
22	0x3bd5f851	0.0065298458
23	0xbd829739	-0.063765
24	0xbc71f95c	-0.014768925
25	0x3e80c0bc	0.25147045
26	0xbdefb461	-0.117043264
27	0xbda43488	-0.08017832
28	0x3dbac988	0.0912047
29	0xbedb3bd5	-0.42819086
30	0xbdf4857c	-0.119395226
31	0xbe000589	-0.12502111
32	0x3d5d0716	0.053961836
33	0x3e660bb9	0.2246541
34	0x3e2a8336	0.16651616
35	0x3d3eb828	0.046562344
36	0xbc893de3	-0.016753143
37	0xbe579993	-0.21054678
38	0x3e1f120e	0.15534231
39	0x3bab7d24	0.005233424
40	0x3d073008	0.03300479
41	0x3e90f7a1	0.28313926
42	0xbe1a84b9	-0.15089692
43	0x3e5851be	0.21124932
44	0x3cf2160b	0.029551527
45	0xbec6aeb2	-0.38805157
46	0xbdd72f3d	-0.10507057
47	0x3e60e6ce	0.21963045
48	0x3fcca102	1.5986636
49	0xbfb29a11	-1.3953267
50	0x3d1cc15d	0.038270343
51	0xbf46be3c	-0.77634025
52	0xbcd343cc	-0.025789164
53	0x3e148319	0.14503135
54	0xbd9fabc6	-0.07796435
55	0x3e834b92	0.25643593
56	0xbe083970	-0.1330316
57	0xbf453dc6	-0.77047384
58	0xbc03d7e7	-0.008047081
59	0x3e58f76f	0.21188138
60	0x3d69ed9d	0.05711137
61	0xbcd907d5	-0.026492992
62	0xbd600cfb	-0.05469988
63	0xbf1f8f79	-0.62328297
64	0x3b36a4c7	0.002786921
65	0xbf408143	-0.7519724
66	0x3d4c5897	0.049889173
67	0xbf19319d	-0.5984133
68	0x3cb6daca	0.022321124
69	0xbea418dd	-0.3205022
70	0x3b9d461b	0.004799617
71	0x3ecc82e7	0.3994362
72	0xbe268027	-0.16259824
73	0xbec9b6cd	-0.39397278
74	0x3ccdbf75	0.025115708
75	0x3ece9521	0.4034815
76	0x3e977cdf	0.29587457
77	0xbea8f294	-0.32997572
78	0xbb8a16e3	-0.004214154
79	0xbdd801c1	-0.105472095
80	0x3e17f145	0.14838131
81	0xbf2a58e2	-0.66541874
82	0xbc819dad	-0.015822256
83	0xbdc45043	-0.09585621
84	0x3e6845c7	0.22682868
85	0xbebee7df	-0.3728628
86	0xbe05aa8d	-0.13053341
87	0x3e4dc53d	0.20094772
88	0x3d85b8af	0.06529366
89	0xbf3b1303	-0.73075885
90	0xbe1d569c	-0.1536507
91	0x3e5d20c3	0.21594529
92	0x3e4f3eec	0.20238847
93	0xbf2410bf	-0.6408805
94	0xbe31197f	-0.17294882
95	0xbdc23fc0	-0.094848156
96	0x3d8eb999	0.06968994
97	0xbeace4f7	-0.33768436
98	0xbdd5c854	-0.104386
99	0xbdd66610	-0.104686856
100	0xbf3e33e2	-0.74297917
101	0xbefc0f88	-0.492306
102	0x400c2e7c	2.1903372
103	0xbe38d408	-0.18049634
104	0x3e046ef4	0.1293295
105	0x3eba0570	0.36332273
106	0x3b100c2c	0.0021979911
107	0x3c927bdb	0.017881325
108	0x3e8f5908	0.27997613
109	0x3e6e9b23	0.23301367
110	0xbd9b41fd	-0.07580946
111	0xbd0b6a68	-0.034037024
112	0x3eb81c2c	0.35958993
113	0x3f011ed2	0.50437653
114	0xbd3ea280	-0.04654169
115	0x3e491f8c	0.1964094
116	0x3dea4c7c	0.114403695
117	0xbe80d1e9	-0.2516015
118	0x3d777559	0.060414646
119	0x3dcfb5e6	0.10142116
120	0x3f2a0152	0.66408265
121	0x3f21dd1c	0.6322801
122	0x3c696b3e	0.01424676
123	0x3f021979	0.5082012
124	0xbd862b73	-0.06551256
125	0xbf6e2854	-0.93030286
126	0x3bbaa5f0	0.005696051
127	0x3f13e8c5	0.57777053
128	0x3af51dac	0.001870086
129	0x3f7c8b8c	0.9865043
130	0x3c6f23a9	0.014595904
131	0x3e8737e8	0.2640984
132	0xbe56760d	-0.2094347
133	0x3e847f68	0.25878453
134	0xbbab6a8b	-0.005231207
135	0x3e6165ef	0.22011541
136	0x3de090bb	0.10965105
137	0x3f97769a	1.1833069
138	0xbbdf5b77	-0.0068163234
139	0x3e8b239e	0.2717561
140	0xbe11bbd2	-0.14231804
141	0xbe5788a5	-0.2104822
142	0x3c878c29	0.016546326
143	0x3e4caac8	0.19987023
144	0x3d70e715	0.058814127
145	0x3fae0c62	1.3597529
146	0xbd39c18f	-0.045350607
147	0x3f0a4fea	0.5402819
148	0x3c8beb54	0.017079987
149	0xbf800a11	-1.0003072
150	0xbd0a2e05	-0.033735294
151	0x3ef3e137	0.47632763
152	0x3f3a45e7	0.7276291
153	0x3dca4a96	0.098775074
154	0xbea1bd6e	-0.31589836
155	0x3e7ca01b	0.2467045
156	0x3d0ab683	0.033865463
157	0xbef487b6	-0.4775979
158	0xbd698999	-0.05701599
159	0xbd9b20f8	-0.07574648
160	0x3e4a0aab	0.19730632
161	0x3e092e93	0.13396673
162	0x3d2091f7	0.039201703
163	0xbdbd414d	-0.09240971
164	0x3da8e7cd	0.082473375
165	0xbed8e062	-0.4235869
166	0xbad3a7f8	-0.0016148081
167	0x3d6a98d9	0.057274673
168	0xbd48987f	-0.048973557
169	0xbd59f57a	-0.05321262
170	0xbc82be99	-0.015960025
171	0x3d8e3fed	0.069457866
172	0x3e5194f6	0.2046698
173	0xbe945506	-0.28971118
174	0xbd302699	-0.04300556
175	0x3f21a949	0.63148934
176	0xbd581246	-0.052751802
177	0xbef824f3	-0.4846569
178	0xbccbddce	-0.024886038
179	0x3f1a2649	0.6021467
180	0x3e290736	0.16506657
181	0xbf32040b	-0.6953742
182	0xbb48d4a9	-0.0030644333
183	0x3cba01ae	0.022705879
184	0xbe526771	-0.20547272
185	0x3e6103e4	0.2197414
186	0xbc92b85f	-0.01791018
187	0x3cf756d2	0.030192766
188	0x3e55b837	0.20871054
189	0xbf5b6ba8	-0.85711145
190	0xbb24afa5	-0.0025129106
191	0x3e089491	0.13337924
192	0xbd82f131	-0.0639366
193	0xbdabf91c	-0.08397123
194	0xbcba68bb	-0.022755018
195	0x3e35cb19	0.17753257
196	0x3e4cf93c	0.2001695
197	0xbf5055b4	-0.8138077
198	0xbd188a93	-0.03724153
199	0xbd87d2a7	-0.066319756
200	0x3df71e77	0.120663576
201	0xbed3e7d9	-0.41387823
202	0x3d4639b5	0.048394877
203	0xbd0f4492	-0.034977503
204	0xbe811c38	-0.25216842
205	0x3d81244e	0.06305753
206	0x3f5e89e2	0.8692914
207	0xbf156e6a	-0.58371603
208	0xbd8a5ffc	-0.06756589
209	0xbf72b48e	-0.94806755
210	0x3ad95d4d	0.0016583592
211	0x3c85dddd	0.016341144
212	0x3c91b02d	0.017784202
213	0x3efe5c4d	0.49679795
214	0xbce25adf	-0.027631221
215	0x3da4eeac	0.080533355
216	0x3dbfb9b9	0.09361596
217	0xbf4058b2	-0.7513534
218	0xbd733e5d	-0.059385646
219	0xbbdd747f	-0.006758272
220	0x3e188131	0.14893033
221	0x3d476ea9	0.048689518
222	0xbc49a76d	-0.012307984
223	0x3c2a4b1d	0.010393885
224	0x3d1001ad	0.03515785
225	0xbf497986	-0.78701055
226	0x3d48dfb5	0.04904147
227	0x3e2935af	0.16524385
228	0x3c4cfe4a	0.012511799
229	0xbfc63479	-1.5484763
230	0xbd1566d7	-0.03647503
231	0x3dfa12aa	0.12210591
232	0xbd06b6e6	-0.03288927
233	0x3e63762a	0.22213045
234	0xbcb14fee	-0.021644559
235	0xbd8d4b15	-0.068990864
236	0xbdc25f81	-0.09490872
237	0x3f05cda1	0.5226689
238	0x3ba6c563	0.0050894483
239	0xbdcb61a7	-0.09930735
240	0xbb2bf997	-0.0026241296
241	0x3e4b12cd	0.1983139
242	0xbd219f08	-0.039458305
243	0x3c02e55b	0.007989253
244	0xbdb38528	-0.08765632
245	0x3dcf0c8b	0.10109814
246	0xbbf762ae	-0.0075496053
247	0xbd1983cf	-0.037479218
248	0xbe04750f	-0.1293528
249	0x3dd4f1eb	0.10397705
250	0x3c34f428	0.0110445395
251	0x3dcba42f	0.09943425
252	0x3a60c1c9	0.0008573798
253	0xbfc8e02f	-1.5693415
254	0x3d4a32d0	0.049364865
255	0x3d9a723d	0.075413205

fcs1.bias f4 [200]
0	0xbf130085	-0.5742267
1	0xbeb0b57c	-0.34513462
2	0xbd8902d7	-0.06689995
3	0xbee518c3	-0.44745454
4	0x3f19ecc5	0.60126907
5	0xbe8d4d11	-0.2759786
6	0xbee60fee	-0.44934028
7	0xbdca01d6	-0.098636314
8	0xbd4dc06e	-0.050232343
9	0xbee8923e	-0.45424074
10	0xbf03bacf	-0.5145692
11	0xbebf5a8a	-0.37373763
12	0xbf04d28d	-0.51883775
13	0xbe9bb28b	-0.30409655
14	0xbe22d13c	-0.15900129
15	0xbf745c21	-0.9545308
16	0xbe28de8f	-0.1649115
17	0x3ca509a6	0.020146202
18	0xbf29002b	-0.6601588
19	0xbeb79695	-0.35857072
20	0xbebd84f5	-0.370155
21	0xbe381b84	-0.17979246
22	0xbe2bc773	-0.16775303
23	0x3eb11b36	0.34591073
24	0xbefd47e0	-0.494689
25	0xbfa094ea	-1.2545445
26	0xbf0cb5d8	-0.5496497
27	0x3e9f1e5a	0.31077844
28	0xbf5d8d1e	-0.8654345
29	0xbda36a38	-0.07979244
30	0x3f8ba6c6	1.091027
31	0xbf84bb86	-1.0369728
32	0xbf40116c	-0.75026584
33	0x3f0166e1	0.50547606
34	0xbf11cec6	-0.56956136
35	0xbf39e141	-0.72609335
36	0xbf8c905c	-1.0981555
37	0xbe028eed	-0.12749834
38	0xbf77bbff	-0.96771234
39	0xbf3cab21	-0.7369862
40	0xbf1b9201	-0.6076966
41	0x3e65ffbe	0.22460839
42	0xbe90503f	-0.28186223
43	0xbefbc30b	-0.49172243
44	0xbedd3835	-0.43206945
45	0xbea8495e	-0.32868475
46	0xbe9330fd	-0.28748313
47	0xbf0571c8	-0.5212674
48	0xbf1a04a8	-0.60163355
49	0xbf2a277b	-0.6646649
50	0xbed04b7d	-0.40682593
51	0xbea287be	-0.31744188
52	0xbd52a4b3	-0.0514266
53	0x3f98411c	1.189487
54	0xbf09d05d	-0.5383356
55	0xbf1e23eb	-0.61773556
56	0xbf226ce1	-0.63447386
57	0xbe2e741e	-0.17036483
58	0xbea32052	-0.31860596
59	0xbf328caa	-0.69745886
60	0xbe1d7159	-0.1537527
61	0x3c9ea8bb	0.019367566
62	0xbef122f6	-0.47096986
63	0xbf290bb3	-0.66033477
64	0xbed84695	-0.4224135
65	0x3e4c2c61	0.19938804
66	0xbf973755	-1.1813761
67	0x3babe5fe	0.005245923
68	0xbf26f90b	-0.6522376
69	0xbcc4dd79	-0.024031388
70	0xbf2c1e30	-0.6723356
71	0x3ed06841	0.4070454
72	0xbeb53abf	-0.35396382
73	0xbedf7791	-0.4364591
74	0x3dc17640	0.094463825
75	0xbec654fb	-0.3873671
76	0xbe6e8c5d	-0.23295732
77	0xbf4022d1	-0.75053126
78	0xbf0182e2	-0.50590336
79	0x3e374628	0.17897856
80	0xbee3b394	-0.44472945
81	0xbe60fa05	-0.21970375
82	0xbf11b4c2	-0.5691644
83	0xbd3f1b8a	-0.046657123
84	0xbf0426b7	-0.51621574
85	0x3ea3542e	0.31900162
86	0xbf0b66b9	-0.5445362
87	0xbf0c75dd	-0.54867345
88	0xbee89216	-0.45423955
89	0xbf932b39	-1.1497566
90	0xbd2a84cb	-0.041630547
91	0xbf34b1ee	-0.70584
92	0xbf1b5d8e	-0.6068963
93	0x3ea83ca8	0.32858777
94	0xbecda438	-0.4016435
95	0xbee18a9d	-0.44051066
96	0xbf0ef300	-0.5583954
97	0xbec98f6d	-0.39367238
98	0xbe959f83	-0.2922326
99	0xbeebdfea	-0.4606927
100	0xbe506270	-0.20350051
101	0xbf7e7790	-0.9940119
102	0x3ddde68f	0.10834991
103	0x3d7de329	0.061984215
104	0x3d7c4c41	0.06159616
105	0xbf221858	-0.63318396
106	0xbe87ff80	-0.2656212
107	0xbf298b94	-0.66228604
108	0xbec05352	-0.37563568
109	0xbe054c86	-0.13017473
110	0x3c84e1b5	0.016220907
111	0xbf30fafc	-0.6913297
112	0xbe21b01c	-0.15789837
113	0xbf0906a5	-0.53525764
114	0xbea8dc9a	-0.32980806
115	0xbf02e094	-0.5112393
116	0xbe4cc3d1	-0.19996573
117	0xbed31b10	-0.41231585
118	0xbf291737	-0.6605105
119	0xbee611ee	-0.44935554
120	0xbe1bfc01	-0.1523285
121	0xbc1f7e88	-0.009734757
122	0xbe670401	-0.22560121
123	0xbc6487ca	-0.01394839
124	0xbf008bf8	-0.50213575
125	0xbea1bdf5	-0.31590238
126	0xbea6800d	-0.3251957
127	0xbee46c6f	-0.44613978
128	0x3d10836f	0.035281595
129	0xbe325d5a	-0.17418423
130	0xbe222d3a	-0.15837565
131	0x3e18c0cd	0.14917298
132	0xbd0c70b9	-0.03428719
133	0xbf0bfbb3	-0.5468094
134	0xbec3ab98	-0.38216853
135	0xbeb6978d	-0.356625
136	0xbf27e4ac	-0.655833
137	0xbee4487a	-0.44586545
138	0xbeaa25f0	-0.3323207
139	0xbf2e8c51	-0.68182856
140	0xbdefa500	-0.11701393
141	0xbe4d9f36	-0.20080265
142	0xbf261951	-0.6488238
143	0xbf166f4d	-0.5876358
144	0xbee2a763	-0.4426833
145	0x3c3fee0d	0.011714471
146	0x3e022b35	0.12711795
147	0xbe762d55	-0.2404073
148	0xbee30ed3	-0.44347247
149	0xbfbaa0fe	-1.4580381
150	0xbeed865d	-0.46391574
151	0xb9cad43e	-0.00038686575
152	0xbf36f921	-0.7147389
153	0xbca38efb	-0.01996564
154	0xbebd7642	-0.37004286
155	0xbf086b2a	-0.5328852
156	0x3f542ea0	0.82883644
157	0xbda8534d	-0.08219013
158	0xbd5befed	-0.053695608
159	0xbe6ee958	-0.23331201
160	0xbd975d89	-0.07390887
161	0xbf65c7d7	-0.89758056
162	0xbefad0d3	-0.48987445
163	0x3f077a2b	0.5292079
164	0xbf79033b	-0.97270554
165	0xbe7e4214	-0.24829894
166	0xbf75e5aa	-0.96053565
167	0x3ee9eef1	0.4569011
168	0xbefafdd7	-0.4902179
169	0xbe954289	-0.29152325
170	0xbf63deb2	-0.8901168
171	0x3e179049	0.14801134
172	0x3f17fb12	0.5936748
173	0xbf3c369f	-0.73520845
174	0x3f003cc3	0.50092715
175	0xbeeb5a29	-0.45967224
176	0xbe931fa8	-0.2873509
177	0xbf8797aa	-1.0593159
178	0xbf44cf3b	-0.7687871
179	0xbe3c62e1	-0.18397094
180	0xbd3b70c9	-0.045761857
181	0xbbcbc470	-0.0062184855
182	0xbf809ab6	-1.0047214
183	0xbf20d402	-0.628235
184	0xbeca949b	-0.39566502
185	0xbef9e17d	-0.48804846
186	0xbfd9e2b1	-1.7022306
187	0xbda01e53	-0.07818284
188	0xbee5b464	-0.4486419
189	0xbebef723	-0.37297925
190	0xbea0cabf	-0.31404683
191	0xbf32dbea	-0.6986681
192	0xbee64a66	-0.44978637
193	0x3e432a68	0.19059145
194	0xbe40b619	-0.18819465
195	0xbe1e3460	-0.15449667
196	0xbf367abf	-0.71281046
197	0xbedd8dbc	-0.43272197
198	0x3ee4d985	0.44697204
199	0xbec12e75	-0.37730756

fc2.weight f4 [150, 200]
0	0x3ccaa840	0.024738431
1	0xbd084371	-0.033267442
2	0xbda863c1	-0.082221515
3	0xbd976a5f	-0.073933356
4	0x3af82db2	0.0018934517
5	0xbc7b5156	-0.015339216
6	0xba6021e9	-0.0008549975
7	0xbd283fce	-0.041076474
8	0xbd9cb042	-0.07650806
9	0x3c4a644c	0.012353014
10	0xbc2eceee	-0.010669453
11	0xbcc7faae	-0.024411526
12	0xbc8521c4	-0.016251452
13	0xbdcfa4fb	-0.101388894
14	0xbd2e4b63	-0.042552363
15	0xbd69af07	-0.057051685
16	0xbda77c5f	-0.08178019
17	0x3d3ae671	0.045629922
18	0xbd8e377d	-0.06944177
19	0x3db63b13	0.08897986
20	0xbd0b21a9	-0.033967648
21	0xbd420936	-0.047372065
22	0x3c8bc840	0.01706326
23	0xbe1a56b5	-0.15072139
24	0x3d69d4a9	0.057087574
25	0x3dbf1f13	0.09332099
26	0xbd0b5675	-0.034018
27	0xbcc119ea	-0.023571927
28	0xbc6f61a3	-0.014610681
29	0xbd186ae1	-0.037211303
30	0x3d00d752	0.031455345
31	0xbd4da72d	-0.05020826
32	0xbcd613f2	-0.026132558
33	0xbd40f2d2	-0.04710657
34	0xbd96183a	-0.073288396
35	0xbda0acfd	-0.07845495
36	0x3d16a38a	0.036777057
37	0xbdc48216	-0.095951244
38	0xbdf5896e	-0.11989103
39	0x3c3f8c99	0.011691236
40	0xbdb6413f	-0.088991635
41	0xbc44721d	-0.011990097
42	0xbe020257	-0.12696205
43	0xbd968426	-0.07349424
44	0xbd638195	-0.0555435
45	0xbcbc72e9	-0.023004012
46	0xbdd4909e	-0.10379146
47	0xbdd7c3dd	-0.10535405
48	0xbd39c5f3	-0.045354795
49	0xbdae58bc	-0.085130185
50	0x3df2320a	0.118259504
51	0xbdbbcdae	-0.0917009
52	0xbdc8b105	-0.09799389
53	0xbd52cca3	-0.051464688
54	0xbdc0d58f	-0.09415733
55	0xbcc2066b	-0.023684701
56	0xbe1bcafe	-0.15214154
57	0xbdc3fea4	-0.09570053
58	0xbdb597fe	-0.08866881
59	0xbdc658b3	-0.09684887
60	0xbd3b361a	-0.045705892
61	0xbcc1da9c	-0.023663811
62	0x3d95a17d	0.07306192
63	0xbd8dc417	-0.06922167
64	0xbbca01da	-0.0061647715
65	0xbc049a17	-0.0080933785
66	0xbd952be2	-0.072837606
67	0xbd25178b	-0.040305655
68	0xbdae9b67	-0.085257344
69	0x3da2fce8	0.07958394
70	0xbdba1747	-0.09086471
71	0xbe0b23b5	-0.1358784
72	0xbcc50a30	-0.02405271
73	0x3d9b9286	0.075963065
74	0x3be6e463	0.007046269
75	0x3d87313a	0.06601186
76	0xbdacdb02	-0.0844021
77	0xbcc437d7	-0.023952408
78	0xbcb14096	-0.021637242
79	0x391f89d4	0.00015214767
80	0xbd4032f6	-0.0469236
81	0xbcad34d9	-0.021143364
82	0xbe2a965e	-0.16658923
83	0xbdc0bcac	-0.09410986
84	0xbd8e8ffe	-0.06961058
85	0xbd957fcd	-0.07299767
86	0xbd58fb3c	-0.05297397
87	0xbd8cf7e6	-0.068832204
88	0x3ce01758	0.027354881
89	0xbc6647aa	-0.014055172
90	0xbd0824c5	-0.03323819
91	0xbda47c90	-0.08031571
92	0x3d5dc46d	0.054142404
93	0xbd7285a8	-0.059209496
94	0x3cc00da9	0.023444014
95	0xbe0b0d58	-0.13579309
96	0xbd3b85a2	-0.04578174
97	0xbd2543b3	-0.040347766
98	0xbb948951	-0.004532971
99	0x3d2ce677	0.042211976
100	0xbc59b334	-0.013287354
101	0xbdd4e83f	-0.1039586
102	0xbd4409f0	-0.04786104
103	0xbd7380ed	-0.059449125
104	0x3c99f7da	0.018794943
105	0xbd8bdd3e	-0.06829308
106	0x3cd0e50e	0.025499847
107	0xbe0be672	-0.13662127
108	0x3c5b333f	0.013378917
109	0x3c020c4e	0.007937504
110	0xbde85fb0	-0.11346376
111	0xbda12a93	-0.078694485
112	0xbd662a08	-0.056192428
113	0xbce3563d	-0.027751083
114	0xbcb40e9e	-0.021979626
115	0xbbee4004	-0.007270815
116	0xbc73af0e	-0.014873279
117	0x3c563921	0.013075144
118	0xbc9e115c	-0.019295387
119	0xbd5e4744	-0.054267183
120	0xbb95de94	-0.0045736525
121	0x3d8f0ae8	0.06984502
122	0xbdb8bc24	-0.0902026
123	0x3ce41513	0.02784208
124	0xbdeb1022	-0.114776865
125	0xbd422e8a	-0.047407664
126	0xbd6d6550	-0.057957947
127	0xbd83ec0f	-0.06441509
128	0xbd038c85	-0.03211643
129	0xbdb044e3	-0.08606889
130	0x3d38f1ab	0.045152348
131	0xbd9040b9	-0.07043595
132	0x3d8e1bfb	0.069389306
133	0x3c9e69f4	0.019337632
134	0x3b2eaa56	0.002665182
135	0x3a43ec21	0.00074738456
136	0x3c553fb5	0.013015677
137	0xbd8375ad	-0.06418929
138	0xbbdc65d0	-0.006726004
139	0xbdc77920	-0.097399
140	0x3d0372f8	0.032092065
141	0xbdd23bf3	-0.10265341
142	0xbdffc91c	-0.124895304
143	0xbdbb9b20	-0.09160447
144	0xbe02de31	-0.12780072
145	0xbdbfab5a	-0.093588546
146	0xbde74d4e	-0.112940416
147	0xbb764ca4	-0.0037582302
148	0x3dacaaf4	0.08431044
149	0x3cb9e2ba	0.02269112
150	0xbd151361	-0.036395434
151	0xbde0ba08	-0.10972983
152	0xbd66b27f	-0.05632257
153	0xbd063ad6	-0.032770954
154	0x3d845325	0.06461171
155	0xbdc99318	-0.09842509
156	0xbcba56ee	-0.02274653
157	0x3d173db9	0.036924098
158	0xb9ed664b	-0.00045280377
159	0xbc6b4827	-0.014360464
160	0x3bbb74f5	0.0057207295
161	0xbe015801	-0.12631227
162	0x3d2cc57f	0.042180534
163	0xbc7e7cd4	-0.015532691
164	0x3cf94fe3	0.0304336
165	0xbd7a442d	-0.061100174
166	0xbda0fb96	-0.07860486
167	0xbda8ce15	-0.08242432
168	0xbe0e68ac	-0.13907117
169	0xbd557d4c	-0.052121446
170	0xbc0eacc8	-0.008708186
171	0xbddd2ef8	-0.10799974
172	0xbdedccaa	-0.11611302
173	0xbdcdb6f3	-0.100446604
174	0xbdf51a9b	-0.11967965
175	0xbe0ea07c	-0.13928407
176	0xbd75970f	-0.059958514
177	0xbe1ad250	-0.1511929
178	0xbb8fe753	-0.0043915897
179	0xbdc3ae29	-0.09554703
180	0xbcbf7924	-0.023373194
181	0x3cf4b389	0.029870765
182	0xbda7ea2b	-0.08198961
183	0xbd9d3758	-0.076765716
184	0xbdf83669	-0.12119753
185	0xbdf0a01b	-0.11749288
186	0xbd8db933	-0.069200896
187	0x3d0c5933	0.034264755
188	0x3ca21a64	0.019787975
189	0xbd877a34	-0.06615105
190	0xbdc20cd5	-0.09475104
191	0xbd296b79	-0.04136226
192	0xbdc7f786	-0.09764008
193	0x3bcbacf6	0.006215687
194	0xbd1ab201	-0.037767414
195	0x3d62e7fe	0.055397026
196	0xbd31b7a8	-0.04338804
197	0x3d015047	0.0315707
198	0x3c4ab96c	0.01237331
199	0xbdb83e44	-0.08996251
200	0x3e01fdc7	0.12694465
201	0xbed4ae4c	-0.41539228
202	0xbd2bdb70	-0.04195732
203	0x3ba20773	0.0049447357
204	0xbe6730df	-0.22577237
205	0xbed1884f	-0.40924308
206	0xbe9a6e91	-0.3016248
207	0xbdf2a0f6	-0.11847107
208	0x3c0b0d6b	0.008487086
209	0xbe9d2204	-0.30690014
210	0x3cccc148	0.024994507
211	0xbe335d5f	-0.17516087
212	0xbedad24b	-0.42738566
213	0xbe1f94dd	-0.1558413
214	0xbedbd744	-0.42937672
215	0xbdcaf7b1	-0.09910525
216	0xbe100104	-0.14062887
217	0x3d8c534b	0.068518244
218	0xbe985d67	-0.2975876
219	0xbc153871	-0.009107695
220	0xbcdf9c97	-0.027296348
221	0xbf3f3712	-0.74693406
222	0xbe86e306	-0.2634508
223	0x3c854d89	0.016272323
224	0x3e9959a8	0.29951215
225	0x3dd76970	0.105181575
226	0xbeaacbe1	-0.33358672
227	0xbd2de348	-0.04245308
228	0xbd3db75b	-0.04631744
229	0xbd816dfb	-0.06319805
230	0x3e980417	0.2969062
231	0xbf0ad64d	-0.5423325
232	0xbe433733	-0.19064026
233	0xbe7c0222	-0.24610189
234	0xbe187eed	-0.14892168
235	0xbe45b7d8	-0.19308412
236	0xbe617dbc	-0.2202062
237	0xbeab108b	-0.3341106
238	0xbe2adeb6	-0.1668652
239	0xbec53df9	-0.38523844
240	0xbe081556	-0.13289389
241	0x3e3e9b07	0.18613826
242	0xbd504b7b	-0.050853234
243	0x3b9b874d	0.0047463537
244	0xbf356c44	-0.70868325
245	0xbf3fc2f0	-0.74906826
246	0xbea62ae7	-0.32454607
247	0xbf4b197a	-0.7933575
248	0xbe509de5	-0.20372732
249	0xbd362774	-0.04447122
250	0xbe0e8bf1	-0.13920571
251	0x3cded984	0.027203329
252	0x3e6b56d7	0.22982346
253	0x3b9b9717	0.004748236
254	0x3db4387b	0.08799835
255	0xbe5fd910	-0.21860147

fc2.bias f4 [150]
0	0xbe1606ea	-0.14651075
1	0xbea849ec	-0.32868898
2	0xbdfa34ea	-0.12217124
3	0xbe050be2	-0.12992814
4	0xbe4c3130	-0.19940639
5	0x3e2a0077	0.1660174
6	0x3f6746e0	0.9034252
7	0xbdcf6005	-0.10125736
8	0x3d7abaaa	0.061213173
9	0xbc5c2343	-0.013436141
10	0x3e5f240a	0.21791092
11	0xbf6b738d	-0.9197319
12	0xbe0fc578	-0.14040172
13	0x3d49f23d	0.049303282
14	0xbeaa7c1a	-0.33297807
15	0x3f363e32	0.7118865
16	0xbe072518	-0.13197744
17	0xbe110826	-0.14163265
18	0xbeebdc27	-0.460664
19	0xbebefd1d	-0.37302485
20	0xbe4d7b0c	-0.2006647
21	0xbe654bee	-0.22392246
22	0xbe8becab	-0.27329
23	0xbf9e5b68	-1.2371645
24	0xbe5cf2cd	-0.21576996
25	0xbe265249	-0.16242327
26	0xbd48be11	-0.049009386
27	0xbe1b7a95	-0.1518348
28	0xbdcc8cd5	-0.09987799
29	0xbddc5c42	-0.10759784
30	0xbe240f8a	-0.16021553
31	0xbece9a80	-0.4035225
32	0xbdcb54fa	-0.09928317
33	0xbe13a0e4	-0.14416844
34	0xbef6471b	-0.48101124
35	0xbe4a4f49	-0.19756807
36	0xbe540d04	-0.2070809
37	0xbe8557a7	-0.26043436
38	0xbdaee109	-0.08539016
39	0xbe4bce47	-0.19902907
40	0x3d3e80e8	0.046509653
41	0xbe0b44f8	-0.13600528
42	0xbf4efe2f	-0.80856603
43	0xbe3ae09d	-0.18249746
44	0xbddaedc7	-0.10689884
45	0xbd2836ba	-0.041067816
46	0xbde4fd97	-0.11181181
47	0xbe13c10d	-0.14429112
48	0xbdd727a0	-0.10505605
49	0xbe3900fb	-0.1806678
50	0x3de1c23b	0.11023375
51	0xbe89a615	-0.26884523
52	0x3ef8b150	0.4857278
53	0x3e198643	0.14992623
54	0xbe3cc7fa	-0.1843566
55	0xbd3ae07f	-0.045624252
56	0x3de65daf	0.112483375
57	0x3daf4fdc	0.08560154
58	0x3ee728ac	0.45148218
59	0xbe006e5b	-0.12542097
60	0xbe5ddd8f	-0.21666549
61	0xbe38ad17	-0.18034779
62	0xbd9a0952	-0.07521309
63	0xbe6dca79	-0.23221768
64	0xbe8610b0	-0.26184607
65	0x3ec751ff	0.38929746
66	0xbde8a1df	-0.113589995
67	0xbdc0d3c0	-0.09415388
68	0x3b6989ce	0.0035635117
69	0xbe0f2295	-0.13978036
70	0xbdc12e19	-0.094326206
71	0xbe03a3d5	-0.12855466
72	0xbf0eff5b	-0.5585839
73	0x3c6f4052	0.0146027375
74	0xbd892dc4	-0.06698182
75	0xbe2e5c2c	-0.17027348
76	0xbf034233	-0.51272887
77	0xbd68ef9f	-0.056869145
78	0xbe26dab1	-0.16294362
79	0xbe96d6d7	-0.29460785
80	0xbe6f0728	-0.23342574
81	0xbe2295a1	-0.15877391
82	0xbe9eeaf5	-0.31038633
83	0xbd21fcc6	-0.039547704
84	0x3e97e91e	0.29670042
85	0xbe227c4c	-0.15867728
86	0xbdc987ac	-0.098403305
87	0xbe3937e4	-0.18087727
88	0xbe3ab085	-0.182314
89	0xbe8ffb22	-0.28121287
90	0xbabeb462	-0.0014549608
91	0xbd6d1b28	-0.057887226
92	0xbda83ade	-0.08214353
93	0xbe18956c	-0.1490075
94	0x3d1ba903	0.03800298
95	0xbe1dddfc	-0.15416712
96	0x3f76fd02	0.9647981
97	0xbe31b0e2	-0.17352632
98	0xbe4d00f2	-0.20019892
99	0xbdf89a03	-0.121387504
100	0xbe114446	-0.141862
101	0xbe0aa453	-0.13539247
102	0x3e2a9e92	0.16662052
103	0xbe572c25	-0.21012934
104	0xbe202cfd	-0.15642162
105	0xbd878fe6	-0.06619243
106	0x3d88b5f2	0.06675328
107	0xbd8cfeca	-0.06884535
108	0xbe0bf792	-0.1366866
109	0xbdae9754	-0.08524957
110	0xbe0672f6	-0.13129792
111	0xbe9d8078	-0.30762076
112	0xbd8c9472	-0.06864251
113	0x3f51b823	0.81921595
114	0xbd67c005	-0.05657961
115	0xbe343428	-0.17598021
116	0xbe2bc8de	-0.16775844
117	0xbdb12e4c	-0.086514086
118	0xbe133c76	-0.14378533
119	0x3eb0a87f	0.34503552
120	0xbea10733	-0.31450805
121	0xbdafe480	-0.08588505
122	0x3e04e3d9	0.12977542
123	0xbef39226	-0.4757244
124	0xbe405cc9	-0.18785395
125	0xbe86238c	-0.26198995
126	0xbea99655	-0.33122507
127	0xbdde58cb	-0.1085678
128	0xbe66ea80	-0.22550392
129	0xbdd8a249	-0.105778284
130	0x3e319425	0.17341669
131	0xbe642731	-0.22280575
132	0xbde99059	-0.11404485
133	0xbe2899fd	-0.16464992
134	0xbe033834	-0.12814409
135	0xbe024e12	-0.12725094
136	0xbe10f853	-0.14157228
137	0xbdebe310	-0.11517918
138	0xbe605e10	-0.21910882
139	0x3d8a7036	0.06759684
140	0xbe0cc5b5	-0.13747294
141	0xbd919b90	-0.07109749
142	0xbddb24c5	-0.107003726
143	0xbe5b3e04	-0.21410376
144	0x3e5aba2e	0.21360084
145	0xbe19c1b0	-0.15015292
146	0xbe816d1f	-0.25278565
147	0xbcf9c836	-0.030490976
148	0x3e0a29be	0.13492486
149	0xbed0ea9b	-0.4080399

fc3.weight f4 [1, 150]
0	0x3be41395	0.006960342
1	0xbcb0eaea	-0.02159639
2	0xba0bcc32	-0.00053328567
3	0x3bc982d2	0.006149628
4	0xbc14e98a	-0.009088883
5	0xbbf7decd	-0.0075644017
6	0x3ca94e52	0.020667229
7	0xbc04d7f5	-0.008108129
8	0x3ca49e56	0.020095032
9	0xbbea00b1	-0.0071411957
10	0xbc808d48	-0.015692368
11	0xbc52fb71	-0.012877331
12	0x3c3afc33	0.011412668
13	0x39b0b25f	0.00033702233
14	0x3b9e150b	0.004824286
15	0x3c296c75	0.0103408
16	0x3c13df8f	0.0090254685
17	0xbcbe9dfe	-0.023268696
18	0xbca3e087	-0.020004524
19	0xbc807e8a	-0.015685339
20	0x3c157a48	0.009123392
21	0x3c31f18d	0.010860813
22	0x3be7b0c7	0.007070634
23	0xbc7adf53	-0.015312034
24	0x3c26102b	0.010135691
25	0xbc089e01	-0.008338452
26	0xbb91ba92	-0.0044472897
27	0x3ba3aa80	0.0049946904
28	0xbc2e60bf	-0.010643183
29	0xbcb39eef	-0.021926371
30	0xbb16c635	-0.0023006324
31	0xbc9a2c1a	-0.018819857
32	0xbc9881f1	-0.018616648
33	0x3c3f22af	0.011665984
34	0xbc4fc9b3	-0.012682366
35	0xbd41af85	-0.04728653
36	0xbc52ab12	-0.012858169
37	0xbc0adffd	-0.0084762545
38	0xbd76c05b	-0.06024204
39	0xbd131742	-0.035910852
40	0xbc9e50de	-0.01932567
41	0x3cb03585	0.021509895
42	0xbc62fccb	-0.013854216
43	0xbc4ef458	-0.012631498
44	0x3cc3c3e5	0.02389712
45	0xbb5a618f	-0.003332231
46	0xbd43c478	-0.04779479
47	0x3b7ec915	0.0038877178
48	0xbcafecf5	-0.021475295
49	0xbc50ff71	-0.0127562145
50	0x3d198312	0.037478514
51	0x3ccfc38e	0.025361802
52	0x3c75166f	0.014958962
53	0xbc9bda64	-0.019025035
54	0x3a02ed86	0.00049945
55	0xbc594d08	-0.013262995
56	0xbca943e5	-0.020662257
57	0x3c43437d	0.011917946
58	0xbbe6eae5	-0.0070470446
59	0xbcea5f70	-0.028609961
60	0xbbab288d	-0.00522334
61	0xbbd5b934	-0.006522322
62	0x3c3a5c9f	0.011374622
63	0x3b6a121b	0.0035716358
64	0xbc8fbeb4	-0.017546989
65	0xbc4cf020	-0.012508422
66	0x3b632e4e	0.003466505
67	0xbc028d95	-0.007968326
68	0x3c3f2236	0.011665871
69	0x3c37cd72	0.011218416
70	0xbc4f2073	-0.012642014
71	0x3bbae1b3	0.005703175
72	0xbbf0bbb8	-0.0073465966
73	0xbb31206d	-0.0027027384
74	0xbbba1dfd	-0.0056798444
75	0xba41475a	-0.0007372998
76	0xbc9e2ec3	-0.019309407
77	0x3c67a1c8	0.014137693
78	0xbc4f8aa9	-0.0126673365
79	0x3c8f4c34	0.017492391
80	0x3c19c78f	0.009385957
81	0xbc866dca	-0.016409773
82	0xbbb872b6	-0.005628909
83	0xba1b3a62	-0.00059214805
84	0x3b890268	0.004181195
85	0x3c071786	0.0082453545
86	0x3c42eea9	0.011897721
87	0xba933968	-0.0011232318
88	0x3ce85a0b	0.028363248
89	0x3bc2980b	0.005938535
90	0xbc8c51c7	-0.017128838
91	0x3afc9091	0.0019269158
92	0x3b8c94d3	0.004290202
93	0xbb868c21	-0.00410606
94	0xbcb644c4	-0.022249587
95	0xbb202aa3	-0.0024439476
96	0x3b976dc5	0.00462124
97	0x3c9281f2	0.017884228
98	0x3c1ef928	0.009702958
99	0xbbbcb617	-0.0057590115
100	0xbce2e888	-0.02769877
101	0xbcaee707	-0.021350397
102	0x3bcbd4a3	0.0062204166
103	0xbcb922b8	-0.022599563
104	0x3cb44c22	0.02200896
105	0xbc075615	-0.00826027
106	0xbd0b8fb4	-0.034072593
107	0x3c50a526	0.012734687
108	0xbad6269e	-0.0016338413
109	0x3b1a4160	0.0023537502
110	0xbc3fa519	-0.011697077
111	0xbc8832ef	-0.01662585
112	0xbba3ea8f	-0.005002327
113	0xbc1419ab	-0.009039323
114	0x3c92bd80	0.017912626
115	0xbca6104a	-0.02027144
116	0x3c3b4603	0.011430266
117	0xbc993d8e	-0.01870611
118	0xbc3e7c39	-0.011626297
119	0x3c376cbd	0.011195359
120	0xbb2625aa	-0.002535204
121	0x3c615e72	0.013755428
122	0x3bbb83e9	0.005722512
123	0xbc4fc965	-0.012682294
124	0xbba36ddd	-0.004987462
125	0x3b9d2edb	0.0047968454
126	0xbc5728bf	-0.013132273
127	0xbcd50d05	-0.026007185
128	0x3ba2b5a5	0.0049655014
129	0xbbc131b7	-0.005895819
130	0xbc9c57ad	-0.019084776
131	0x3bd8456a	0.0066000717
132	0xbc76ca16	-0.0150628295
133	0x3c60db0a	0.013724098
134	0x3c3c86bd	0.0115067335
135	0x3c570964	0.0131247975
136	0x3c0b13bb	0.008488591
137	0x3ccdd482	0.025125746
138	0xbcb5c194	-0.022187032
139	0x3c1335c8	0.00898499
140	0x3bb1e4b4	0.005428875
141	0xbd126b2f	-0.03574675
142	0x3ab42ab6	0.0013745639
143	0x3b0eed63	0.0021808974
144	0xbcab88e9	-0.020939307
145	0xbc3e6da1	-0.011622817
146	0xbcaf4808	-0.021396652
147	0x3d2139ed	0.039361883
148	0x3b6fb239	0.0036574735
149	0xbca982ad	-0.020692194
