agent1_checkpoint_actor.pth (torch, 144031 bytes, 6 tensors)

fc1.weight f4 [200, 24]
-0.02735472 -0.1947175 -0.038127586 0.05531454 0.0029598444 0.07341992 0.020787241 -0.038135774
-0.051967233 -0.22391649 -0.024964452 0.053209245 0.09069133 0.026478965 -0.010632316 0.07784437
-0.09421118 -0.22537754 -0.014965216 0.09329509 0.16689844 -0.1002825 0.07609876 0.01659679
0.006094426 0.24601293 -0.050383326 0.13317773 -0.07233559 0.15600704 0.012873747 0.112657204
0.03400111 0.34340358 -0.039790746 0.040635064 -0.039350428 0.13538203 -0.04508372 -0.012512437
-0.013519314 0.33279932 0.035062216 -0.2382045 0.0206105 0.19455074 0.005026499 -0.25861368
0.24672051 -0.12095431 -0.013090978 -0.13452208 0.1252678 -0.21252836 -0.00055688526 -0.1310409
0.10004644 -0.029814657 -0.01316138 0.041633874 0.2415901 -0.017222676 -0.02719546 -0.04807914
0.070615254 -0.08450837 -0.06642355 0.0038493192 0.20356454 0.1204348 0.047555503 0.03868868
0.11101807 -0.12325356 0.05215689 -0.032439925 -0.1534808 -0.27560756 0.045812864 0.09332605
0.09353689 -0.0135810925 0.03763286 0.05256247 -0.1264315 -0.29447722 0.013412669 0.0015097267
0.19763176 -0.034471054 0.037971687 0.023574684 -0.16415322 -0.10330953 -0.03166716 -0.04673279
0.028058626 -0.110386655 -0.122419335 -0.10857999 -0.14899789 0.068671934 -0.041319985 -0.012989367
0.019859461 -0.09328577 0.04173114 0.14131394 0.04292425 -0.04721573 -0.024891037 0.11353902
-0.03759414 -0.013337889 0.0100764185 -0.057241704 0.10747537 -0.04840598 0.06220833 0.038983796
-0.018526174 -0.2195579 0.023293717 0.073936254 0.19894372 0.10221733 -0.0043275645 -0.017484099
-0.008745944 -0.15264818 -0.011253525 0.013309026 -0.003567448 0.23161046 -0.025968784 0.1300943
-0.008134539 -0.07353264 0.065928504 0.070453115 -0.13819914 0.10119832 -0.03459327 0.062505014
0.105159186 -0.122120425 0.06330585 0.043784954 0.15477538 -0.06656927 -0.049584292 0.06821206
0.06873217 -0.08724317 0.03858464 0.053348564 0.06460891 0.0706078 -0.03926008 0.08816463
-0.02646004 -0.013845156 -0.085058 0.062424995 0.045297004 -0.0020167895 -0.024503808 -0.0041770395
0.025822172 -0.13510764 0.017457059 -0.068102054 0.06390437 0.07635375 -0.08999369 -0.018682847
-0.07257847 -0.12501562 -0.021850133 -0.15442534 -0.060401816 0.10877723 0.013473359 -0.05695578
-0.04612182 -0.094977744 0.026345689 -0.024110308 -0.22194847 0.044290163 -0.09886737 -0.12944707
0.001222492 -0.038681164 -0.017852644 0.07801277 0.04214848 0.17413194 -0.0091539165 -0.017463572
-0.08460998 0.034035597 -0.031300858 -0.03696206 -0.05201971 -0.04479983 0.018936953 0.016923498
-0.051536858 0.08242305 -0.054971553 0.004893927 -0.04568461 -0.25899446 0.0034708956 -0.07105383
0.059629373 -0.08358929 -0.014221574 -0.05986515 0.0785672 0.08753205 0.027393695 -0.07989603
0.17398548 -0.0018503459 0.07107752 -0.01855417 0.071477674 0.10654227 -0.044601128 -0.017253157
0.10284399 -0.050937437 -0.04025386 -0.06559207 0.091622695 0.12670192 -0.10467569 -0.12176171
-0.020081602 -0.041684207 -0.09009456 -0.12241862 -0.046888456 0.053047143 -0.085674725 -0.09315913
-0.020306498 -0.05560308 0.090001956 -0.01982196 -0.0012976343 0.067299716 -0.030342065 -0.11335559
00000000: 0117 e0bc 0664 47be ac2b 1cbd 8091 623d
00000010: f3f9 413b 2f5d 963d 014a aa3c 4234 1cbd
00000020: 98db 54bd 5d4a 65be 4082 ccbc f0f1 593d
00000030: 60bc b93d 6aea d83c 2a33 2ebc de6c 9f3d
00000040: cbf1 c0bd 5fc9 66be aa30 75bc 7f11 bf3d
00000050: 6de7 2a3e e960 cdbd abd9 9b3d fef5 873c
00000060: c0b3 c73b d0ea 7b3e bf5e 4ebd be5f 083e
00000070: af24 94bd 4fc0 1f3e 69ec 523c d2b8 e63d
00000080: bf44 0b3d 98d2 af3e 9ffb 22bd f470 263d
00000090: ea2d 21bd 96a1 0a3e b5a9 38bd f700 4dbc
000000a0: 1d80 5dbc ac64 aa3e 669d 0f3d e1eb 73be
000000b0: 5ad7 a83c 4f38 473e 54b5 a43b 0369 84be
000000c0: 4da4 7c3e e5b6 f7bd 8b7b 56bc 28c0 09be
000000d0: 3446 003e 09a1 59be f0fb 11ba 962f 06be
000000e0: 26e5 cc3d de3d f4bc d4a2 57bc 4888 2a3d
000000f0: 6563 773e 9216 8dbc 03c9 debc a2ee 44bd
00000100: bb9e 903d b912 adbd 1209 88bd dc44 7c3b
00000110: 3973 503e 85a6 f63d 8fc9 423d 0578 1e3d
00000120: 715d e33d 5d6c fcbd 77a2 553d badf 04bd
00000130: 122a 1dbe 6f1c 8dbe 45a6 3b3d ba21 bf3d
00000140: 4590 bf3d 3b83 5ebc ea24 1a3d bf4b 573d
00000150: 4277 01be b8c5 96be d0c0 5b3c 06e2 c53a
00000160: fb5f 4a3e 8531 0dbd 3388 1b3d b21f c13c
00000170: c817 28be f293 d3bd 6db5 01bd e26a 3fbd
00000180: 34db e53c 6612 e2bd fdb6 fabd 305f debd
00000190: e792 18be dfa3 8c3d 253f 29bd 5bd1 54bc
000001a0: 4fb0 a23c 9c0c bfbd 46ee 2a3d 9ab4 103e
000001b0: 57d1 2f3d 4865 41bd 4ae8 cbbc 2587 e83d
000001c0: 50fc 19bd 2987 5abc 9017 253c 4776 6abd
000001d0: 0c1c dc3d 5945 46bd 29ce 7e3d 79ad 1f3d
000001e0: 34c4 97bc c9d3 60be 77d2 be3c e46b 973d
000001f0: e7b7 4b3e 5257 d13d 3ece 8dbb d03a 8fbc
00000200: 264b 0fbc ce4f 1cbe b460 38bc 1a0e 5a3c
00000210: d8cb 69bb 4b2b 6d3e 7dbc d4bc 7137 053e
00000220: bb46 05bc 4898 96bd 8605 873d b949 903d
00000230: 1384 0dbe 1141 cf3d acb1 0dbd a102 803d
00000240: b35d d73d 461a fabd 7fa6 813d da57 333d
00000250: 707d 1e3e 7855 88bd e618 4bbd c4b2 8b3d
00000260: 74c3 8c3d 8cac b2bd ed0a 1e3d 0684 5a3d
00000270: ad51 843d d29a 903d 2dcf 20bd a88f b43d
00000280: bac2 d8bc cbd6 62bc e432 aebd 5ab1 7f3d
00000290: 5a89 393d 1d2c 04bb 36bc c8bc 8cdf 88bb
000002a0: 0589 d33c a859 0abe 1b02 8f3c 1779 8bbd
000002b0: 4be0 823d 5b5f 9c3d 9d4e b8bd c50c 99bc
000002c0: 05a4 94bd 1804 00be 0dff b2bc ad21 1ebe
000002d0: e567 77bd 99c6 de3d 5dbf 5c3c 774a 69bd
000002e0: 3cea 3cbd b183 c2bd ead2 d73c fb82 c5bc
000002f0: 7646 63be 9a69 353d fa7a cabd c68d 04be
00000300: 063c a03a 2470 1ebd b53f 92bc 29c5 9f3d
00000310: e2a3 2c3d a54f 323e 4ffa 15bc c40f 8fbc
00000320: ff47 adbd e968 0b3d 5435 00bd 8765 17bd
00000330: 9f12 55bd 0780 37bd ab21 9b3c 26a3 8a3c
00000340: 5018 53bd 6bcd a83d da29 61bd 3c5d a03b
00000350: c91f 3bbd ec9a 84be f777 633b ac84 91bd
00000360: ee3d 743d dd30 abbd 9b01 69bc 2935 75bd
00000370: d7e7 a03d 0144 b33d be68 e03c 88a0 a3bd
00000380: 4029 323e 4e87 f2ba 1791 913d eafe 97bc
00000390: e362 923d d532 da3d acaf 36bd 7e56 8dbc
000003a0: df9f d23d c6a3 50bd 3be1 24bd 2355 86bd
000003b0: aea4 bb3d 26be 013e 3560 d6bd 345e f9bd
000003c0: 2c82 a4bc 0fbd 2abd 7f83 b8bd 9db6 fabd
000003d0: 1c0e 40bd f647 593d 3b76 afbd 37ca bebd
000003e0: d059 a6bc 0ec0 63bd f252 b83d aa61 a2bc
000003f0: 6215 aaba 6fd4 893d ec8f f8bc fa26 e8bd

fc1.bias f4 [200]
0.24589649 0.043839913 0.10458374 -0.18911773 -0.15378587 -0.014348746 -0.034252062 -0.09815862
0.23102354 -0.092637315 -0.14370379 -0.0126374215 0.15272461 -0.0362602 0.19061194 0.19205889
0.03706971 0.08315145 0.13724639 -0.052958477 -0.053172283 0.1599859 0.16953579 -0.080386326
-0.15512769 0.08002562 0.118744604 -0.066679955 -0.1329499 -0.07854852 0.0050980463 0.11158238
0.047957804 -0.19762132 -0.08657993 0.28239167 -0.16477871 -0.17209437 0.11457464 0.21740404
-0.10907528 -0.16441314 -0.13062848 0.2223204 -0.06708062 0.11679331 0.25054848 -0.08399624
-0.19249038 -0.087748125 0.02054439 0.18993017 0.04504034 0.12917306 0.011218419 0.011036524
0.035101637 0.09305947 0.055474788 -0.14421408 -0.12796843 0.026401957 0.14559951 0.03946889
-0.1761407 -0.17326242 -0.20028196 0.115974 0.1178899 0.07341821 0.053395532 0.12467072
0.16488771 0.15826093 0.08044538 -0.021117693 0.16586493 -0.22466254 -0.11131839 0.050227776
0.014691488 -0.17141262 -0.090600766 -0.1271937 0.11726081 0.18117584 -0.053938236 0.046160985
-0.04479707 0.18502808 -0.23335277 -0.1270085 -0.10483263 0.12340265 -0.10177939 0.05207563
0.14633521 -0.03841465 -0.04296392 -0.096044116 0.06371888 -0.06146653 0.06853535 -0.04391237
-0.09437657 -0.10206413 -0.18497153 0.11125387 0.0944712 0.03231043 -0.12129404 -0.18553808
-0.13237065 -0.16078337 -0.15933403 -0.20924225 -0.118514776 -0.16136351 0.05118605 0.12234851
0.05574734 -0.26817894 0.1571871 0.008735431 0.05646717 -0.094459474 0.07625986 -0.24199483
0.1647644 0.18607946 0.13463514 -0.25529838 -0.08015066 0.028315723 0.14184445 0.01249112
0.03877237 0.011815131 0.03693047 0.056362465 -0.14822514 -0.09902104 0.15141222 0.19374482
0.0315965 0.15669684 0.124940835 0.007382666 -0.10192865 -0.12174496 0.05630124 0.05319946
-0.03338387 0.20144637 -0.03667005 -0.017801756 -0.21075137 -0.032263655 0.25752518 -0.15475896
-0.021186475 0.088410445 -0.13818969 0.030418286 0.093435265 -0.09047432 -0.19310224 -0.033092372
0.016123755 0.019294303 0.052352034 -0.23359227 0.19291404 -0.24331324 -0.0076942826 -0.05449277
-0.026208304 0.19226538 -0.21351725 0.14744093 0.090249315 0.18526775 -0.22736606 -0.017158538
0.27689472 -0.1673959 0.02837971 -0.17210662 0.05103191 -0.117408365 0.05012804 0.026683345
0.11176209 0.007959497 0.009112622 0.08395154 -0.15405944 -0.05443961 0.04507368 -0.1826627
00000000: 4acc 7b3e 7b91 333d 0030 d63d 14a8 41be
00000010: 0b7a 1dbe 0117 6bbc e44b 0cbd 6307 c9bd
00000020: 6f91 6c3e a2b8 bdbd 1627 13be 300d 4fbc
00000030: d763 1c3e 9385 14bd c72f 433e 16ab 443e
00000040: 69d6 173d 4f4b aa3d 518a 0c3e fdea 58bd
00000050: 2ecb 59bd 58d3 233e ca9a 2d3e 96a1 a4bd
00000060: cbd9 1ebe 79e4 a33d 5f30 f33d 808f 88bd
00000070: 0524 08be 0cde a0bd 830d a73b 4e85 e43d
00000080: 676f 443d 3e5d 4abe d150 b1bd a495 903e
00000090: c0bb 28be 8239 30be 1ca6 ea3d 2a9f 5e3e
000000a0: dc62 dfbd eb5b 28be 79c3 05be f5a7 633e
000000b0: 9061 89bd 5531 ef3d e447 803e 3806 acbd
000000c0: 331c 45be 4ab5 b3bd b54c a83c 0e7d 423e
000000d0: 387c 383d f145 043e 76cd 373c 89d2 343c
000000e0: bcc6 0f3d f795 be3d 8839 633d dbac 13be
000000f0: 280a 03be eb48 d83c 0a18 153e 21aa 213d
00000100: 3a5e 34be b46b 31be b716 4dbe c783 ed3d
00000110: 4370 f13d 495c 963d 46b5 5a3d 5d53 ff3d
00000120: 53d8 283e 270f 223e 8cc0 a43d 03ff acbc
00000130: 7fd8 293e f00d 66be e5fa e3bd a4bb 4d3d
00000140: 91b4 703c ca86 2fbe e58c b9bd 113f 02be
00000150: 7026 f03d 2986 393e 57ee 5cbd 4d13 3d3d
00000160: 227d 37bd 0078 3d3e 07f4 6ebe 840e 02be
00000170: 7db2 d6bd 87ba fc3d b671 d0bd 414d 553d
00000180: e6d8 153e ae58 1dbd effa 2fbd c7b2 c4bd
00000190: 0b7f 823d 54c4 7bbd 435c 8c3d 75dd 33bd
000001a0: 8148 c1bd 0007 d1bd 2d69 3dbe 12d9 e33d
000001b0: 1e7a c13d f157 043d 0269 f8bd b2fd 3dbe
000001c0: 2c8c 07be 65a4 24be 7628 23be 9a43 56be
000001d0: e0b7 f2bd 7a3c 25be 77a8 513d db91 fa3d
000001e0: 5357 643d c04e 89be a8f5 203e 0e1f 0f3c
000001f0: 1f4a 673d f873 c1bd 212e 9c3d 7ecd 77be
00000200: 00b8 283e 9d8b 3e3e cbdd 093e 78b6 82be
00000210: 0726 a4bd 60f6 e73c ac3f 113e 8ea7 4c3c
00000220: c7cf 1e3d 4094 413c 6844 173d 54dc 663d
00000230: 55c8 17be 8bcb cabd ce0b 1b3e 0b65 463e
00000240: 556b 013d 2375 203e fbe0 ff3d 4bea f13b
00000250: f8bf d0bd 6c55 f9bd 219c 663d ade7 593d
00000260: 86bd 08bd f547 4e3e 5633 16bd fdd4 91bc
00000270: 35cf 57be e526 04bd 57da 833e 2279 1ebe
00000280: 428f adbc 8910 b53d 9981 0dbe c52f f93c
00000290: fd5a bf3d 9a4a b9bd 98bc 45be de8b 07bd
000002a0: f715 843c 160f 9e3c 166f 563d d032 6fbe
000002b0: 428b 453e 1b27 79be 5220 fcbb d033 5fbd
000002c0: ccb2 d6bc 37e1 443e 44a4 5abe c1fa 163e
000002d0: a2d4 b83d d4b6 3d3e a6d2 68be 1090 8cbc
000002e0: 25c5 8d3e d569 2bbe 917c e83c b83c 30be
000002f0: d606 513d cc73 f0bd 0f53 4d3d 0897 da3c
00000300: 86e3 e43d 8d68 023c 1b4d 153c c9ee ab3d
00000310: c2c1 1dbe 12fc 5ebd 2e9f 383d ee0b 3bbe

fc2.weight f4 [150, 200]
0.03600637 -0.028564185 -0.29012913 0.25423616 0.08327199 -0.07011783 -0.19156455 -0.006320023
-0.043730993 -0.014244637 0.026287297 0.04010041 0.062420957 0.030379066 0.08595652 -0.0749145
-0.01610631 0.1025986 0.07882563 -0.078019775 -0.034143057 0.0051679956 0.04615347 0.049904775
0.08763807 0.043634497 0.03677042 -0.017028295 -0.12929055 -0.18713042 -0.052390933 0.027018692
0.090501145 -0.049919285 0.039713487 0.06177937 0.07266184 -0.18329738 -0.004783919 0.07004147
-0.06689669 0.010090722 0.049038507 -0.13054855 -0.033616483 -0.054872066 -0.028069537 -0.010689321
-0.012973389 0.003787805 -0.0043573068 0.08853119 0.019952798 0.13752711 0.11266223 0.03712038
-0.08718632 -0.035332315 0.025133822 0.3498396 -0.11289283 -0.12229792 -0.11418362 -0.25881812
0.09130036 0.002084136 0.022888448 -0.0153965885 -0.07347847 -0.058924437 0.045924395 -0.010078493
0.07179589 -0.07575455 0.10934296 -0.067773886 -0.0015787372 0.07322823 -0.17011791 0.074165724
-0.04529055 -0.13619745 -0.108486906 0.060420975 0.074082196 -0.22603989 0.10994725 -0.010882119
-0.024256306 -0.04334201 -0.3631705 -0.047003508 0.079438284 -0.032547764 -0.020063687 -0.07203844
0.047134243 0.038271077 0.12425626 -0.06381264 0.09149952 0.046068016 -0.080451176 -0.066259
-0.18038675 -0.051870644 0.0567785 -0.0104286475 -0.1155653 -0.07534766 -0.2775573 -0.061844107
0.029192034 0.08256842 -0.045890544 -0.24301618 0.07272144 0.12109321 0.05834343 -0.20457925
-0.093857706 -0.051693305 0.021408333 -0.020349758 0.023732953 0.005648821 -0.02728878 -0.24166068
-0.114611365 -0.18138811 -0.113859735 -0.097563006 0.13463978 -0.14833735 -0.21200635 -0.033274237
-0.041561596 -0.038955715 0.013707345 -0.047025733 -0.003068182 0.043939788 0.046835076 -0.025200514
-0.020568887 0.08037081 -0.034980465 0.20737113 -0.019269265 0.018220417 0.0440869 -0.2231063
0.016573332 -0.067577966 -0.039318323 -0.10680902 -0.07991292 0.087695576 -0.046762757 -0.032895926
0.067520134 0.04638333 0.048618887 -0.020996235 0.044152256 0.0071466067 0.018522888 0.08177238
-0.0644674 0.06529243 0.095926374 -0.08923452 0.031664204 0.0722212 0.03007411 0.062070277
0.049112976 -0.10804318 -0.07828263 -0.046513457 -0.07337271 -0.038654685 -0.041804712 -0.06667642
0.103353165 0.014679526 -0.010760025 -0.016927134 -0.00044119387 -0.06145895 -0.0655796 0.10401548
0.08130713 -0.0060643447 -0.12380619 -0.0677027 0.07742306 0.14401507 0.033936888 0.06722655
0.14223607 0.034076996 0.024580138 -0.24617738 0.14118181 -0.02443859 -0.028532127 0.0414311
0.05852173 0.06963372 -0.026171342 0.017318826 -0.014320968 -0.025553547 0.09701877 0.120608844
0.16466136 0.006568984 0.093833 0.16546391 -0.032708135 0.0149476705 0.04826137 0.17448047
-0.08487082 0.003671866 -0.047499463 -0.02891513 -0.045619853 0.16772775 0.07981829 -0.037335683
-0.014803931 -0.112778045 0.00546442 0.12995687 0.07043388 -0.0093009425 0.063753486 0.11112918
0.0890576 -0.0075414125 -0.081907265 -0.025863575 -0.0033616459 0.11606195 0.08676999 -0.006361664
-0.055188738 0.02218182 0.024979077 0.06844765 -0.01186994 0.05620609 -0.027617177 -0.006167684
00000000: 6a7b 133d 70ff e9bc ce8b 94be 3e2b 823e
00000010: 818a aa3d f099 8fbd 7f29 44be 3218 cfbb
00000020: 451f 33bd 5762 69bc 7558 d73c 5440 243d
00000030: 1ead 7f3d 85dd f83c f909 b03d c66c 99bd
00000040: 61f1 83bc 371f d23d 556f a13d d5c8 9fbd
00000050: 97d9 0bbd 4a58 a93b 6c0b 3d3d f368 4c3d
00000060: 977b b33d 16ba 323d 949c 163d ec7e 8bbc
00000070: be64 04be 1e9f 3fbe e097 56bd 4e56 dd3c
00000080: aa58 b93d 2a78 4cbd 9caa 223d 5d0c 7d3d
00000090: bbcf 943d 4fb2 3bbe 6cc2 9cbb e771 8f3d
000000a0: 2201 89bd 8e53 253c 9adc 483d 85ae 05be
000000b0: 70b1 09bd 88c1 60bd 16f2 e5bc 4322 2fbc
000000c0: 568e 54bc d33c 783b bdc7 8ebb d74f b53d
000000d0: 0d74 a33c e8d3 0c3e 75bb e63d 8a0b 183d
000000e0: be8e b2bd 9eb8 10bd 72e5 cd3c 2d1e b33e
000000f0: 5b34 e7bd 5577 fabd 1ad9 e9bd cf83 84be
00000100: affb ba3d 0096 083b 8e80 bb3c f941 7cbc
00000110: e17b 96bd c05a 71bd 381b 3c3d 4320 25bc
00000120: b909 933d 3425 9bbd 34ef df3d 09cd 8abd
00000130: a1ed ceba aff8 953d 6433 2ebe 33e4 973d
00000140: 9582 39bd 5877 0bbe 622e debd fc7b 773d
00000150: 68b8 973d 0077 67be 062c e13d ea4a 32bc
00000160: 29b5 c6bc 6487 31bd 7cf1 b9be c086 40bd
00000170: 8ab0 a23d ce50 05bd 9a5c a4bc e488 93bd
00000180: d60f 413d 22c2 1c3d 117a fe3d 34b0 82bd
00000190: 1a64 bb3d d1b1 3c3d 96c3 a4bd ccb2 87bd
000001a0: 4eb7 38be 5076 54bd 9390 683d ebdc 2abc
000001b0: 80ad ecbd e04f 9abd fe1b 8ebe 3f50 7dbd
000001c0: 2224 ef3c a219 a93d b9f7 3bbd 3cd9 78be
000001d0: faee 943d b8ff f73d 85f9 6e3d 397d 51be
000001e0: 7838 c0bd 5cbc 53bd 8760 af3c 89b4 a6bc
000001f0: 9c6b c23c bf19 b93b b88c dfbc e675 77be
00000200: 5db9 eabd cebd 39be 4b2f e9bd 1dcf c7bd
00000210: 03df 093e bfe5 17be 3118 59be 914a 08bd
00000220: 7e3c 2abd 0790 1fbd c694 603c 0e9e 40bd
00000230: 8d13 49bb 35fa 333d 23d6 3f3d 4f71 cebc
00000240: 1580 a8bc 7499 a43d ad47 0fbd 1959 543e
00000250: 94da 9dbc fc42 953c 7794 343d fa75 64be
00000260: ccc4 873c 5166 8abd 400c 21bd b0be dabd
00000270: 63a9 a3bd bd99 b33d 4e8a 3fbd e1bd 06bd
00000280: ff47 8a3d 72fc 3d3d 9924 473d 4c00 acbc
00000290: ffd8 343d 152e ea3b 50bd 973c 4778 a73d
000002a0: 7c07 84bd 0ab8 853d 0c75 c43d 97c0 b6bd
000002b0: 53b2 013d b5e8 933d fb5d f63c 673d 7e3d
000002c0: b02a 493d be45 ddbd a552 a0bd e584 3ebd
000002d0: 6e44 96bd 6054 1ebd 6b3b 2bbd a68d 88bd
000002e0: d3aa d33d 6582 703c d14a 30bc c6aa 8abc
000002f0: 0a50 e7b9 61bc 7bbd 994e 86bd 1106 d53d
00000300: 5a84 a63d 69b7 c6bb 1a8e fdbd b7a7 8abd
00000310: fb8f 9e3d b078 133e 6801 0b3d 13ae 893d
00000320: 55a6 113e 5294 0b3d 495c c93c ec15 7cbe
00000330: f791 103e 7033 c8bc 35bc e9bc a8b3 293d
00000340: 7bb4 6f3d 209c 8e3d 4865 d6bc 36e0 8d3c
00000350: 7ea2 6abc ac55 d1bc c7b1 c63d c501 f73d
00000360: fd9c 283e a240 d73b 842b c03d 5f6f 293e
00000370: f7f8 05bd 13e7 743c b7ad 453d 02ab 323e
00000380: c1d0 adbd b0a3 703b cc8e 42bd 6cdf ecbc
00000390: e2db 3abd d3c0 2b3e c677 a33d 4ded 18bd
000003a0: 308c 72bc 2df8 e6bd e10e b33b 6a13 053e
000003b0: a33f 903d fb62 18bc 3091 823d b297 e33d
000003c0: d563 b63d f41d f7bb ffbe a7bd d9df d3bc
000003d0: 0f4f 5cbb e3b1 ed3d 77b4 b13d 8175 d0bb
000003e0: 960d 62bd a6b6 b53c eca0 cc3c 482e 8c3d
000003f0: 237a 42bc 5b38 663d 6b3d e2bc 491a cabb

fc2.bias f4 [150]
-0.046955444 0.089661725 0.061254364 0.031120975 0.056930576 -0.005468482 0.042182267 -0.005664836
-0.05622458 0.008547313 0.012176915 -0.04859712 0.090644605 -0.02360295 0.045052312 -0.039463606
0.008350086 -0.06727854 -0.037573744 -0.019182507 -0.111891784 -0.0027053307 0.020792166 0.09989535
-0.021763539 0.077470586 0.011259837 0.028700426 0.06653434 0.10802513 -0.08171618 0.057417903
-0.059116423 -0.041045725 -0.014963908 -0.05904937 0.009778714 0.019848723 -0.103626594 -0.04538967
0.04459949 -0.0187965 -0.018489014 -0.0029104028 -0.033419665 0.075895146 0.06622018 -0.015677962
0.016563475 0.063770585 -0.008736228 -0.05049848 -0.057377324 0.0292131 0.024440603 -0.04437814
0.07330839 0.032590784 -0.022880567 -0.05858037 0.03187444 0.034893423 -0.02055284 0.10077411
-0.06876734 0.002949639 -0.057218403 -0.008808307 -0.016477069 0.081260115 0.05641071 0.097847715
0.040137667 0.0022217971 -0.07662048 0.05107583 -0.009664794 0.059468947 -0.05872078 -0.0024111345
-0.041070636 -0.04347936 -0.015425097 -0.069209285 0.005103221 0.109262995 0.023553653 0.052656952
-0.040208325 -0.038092647 -0.0042605577 0.0547996 -0.008869631 -0.02372112 0.033472754 0.0013282887
-0.032546666 -0.058581695 -0.054385077 0.011207149 0.06473705 -0.014224719 0.109776676 0.09425529
0.001058337 -0.096442185 -0.07402784 0.029805103 -0.04891717 -0.009349492 0.026641548 0.011661585
0.03660287 0.049462844 0.09371799 -0.043074206 0.03882965 -0.020517541 0.068489075 0.057368893
0.035443407 0.0056640133 -0.042929903 -0.0057442654 -0.005905953 0.032876257 -0.014810849 0.044691958
0.049252737 -0.03465517 0.036669917 0.039316915 0.07313167 -0.001226131 -0.0090394365 0.023258787
0.08383856 0.015950778 0.048221894 0.012281121 -0.010695502 -0.038019627 0.010629651 -0.022252109
-0.063332334 0.070710026 0.032505266 0.029070813 0.0640584 -0.079465866
00000000: 5a54 40bd 91a0 b73d dbe5 7a3d 6af1 fe3c
00000010: 0930 693d f430 b3bb 50c7 2c3d 17a0 b9bb
00000020: bf4b 66bd 070a 0c3c af81 473c c60d 47bd
00000030: e1a3 b93d f95a c1bc c688 383d 97a4 21bd
00000040: cdce 083c 55c9 89bd ede6 19bd a224 9dbc
00000050: 8527 e5bd eb4b 31bb 5554 aa3c ef95 cc3d
00000060: 7349 b2bc e6a8 9e3d 2e7b 383c 281d eb3c
00000070: 2843 883d 483c dd3d d05a a7bd 092f 6b3d
00000080: 1024 72bd 901f 28bd 2e2b 75bc c1dd 71bd
00000090: e636 203c ca99 a23c 2e3a d4bd 85ea 39bd
000000a0: f4ad 363d 1efb 99bc 4676 97bc 75bc 3ebb
000000b0: 0fe3 08bd ea6e 9b3d 729e 873d 126f 80bc
000000c0: 20b0 873c 279a 823d 6522 0fbc 7fd7 4ebd
000000d0: 7c04 6bbd 5050 ef3c a937 c83c dac5 35bd
000000e0: b622 963d ea7d 053d 0770 bbbc f8f1 6fbd
000000f0: c68e 023d 68ec 0e3d 6e5e a8bc a862 ce3d
00000100: e4d5 8cbd bb4e 413b d85d 6abd b850 10bc
00000110: ebfa 86bc b46b a63d eb0e 673d 6264 c83d
00000120: 6567 243d 929b 113b 33eb 9cbd e434 513d
00000130: 1659 1ebc b695 733d 3385 70bd 2004 1ebb
00000140: af39 28bd 6a17 32bd 8cb9 7cbc 99bd 8dbd
00000150: ec38 a73b 47c5 df3d 97f3 c03c d1ae 573d
00000160: 7cb1 24bd 0907 1cbd 269c 8bbb 8c75 603d
00000170: ee51 11bc cb52 c2bc ba1a 093d f919 ae3a
00000180: a74f 05bd 5cf3 6fbd e3c2 5ebd 319e 373c
00000190: dc94 843d cc0e 69bc 98d2 e03d eb08 c13d
000001a0: e6b7 8a3a 7b83 c5bd e89b 97bd d529 f43c
000001b0: 5f5d 48bd 9d2e 19bc 603f da3c 3c10 3f3c
000001c0: e4ec 153d 8d99 4a3d 38ef bf3d 946e 30bd
000001d0: d70b 1f3d 6714 a8bc 0044 8c3d a5fb 6a3d
000001e0: 1b2d 113d 3099 b93b 44d7 2fbd 643a bcbb
000001f0: b986 c1bb 41a9 063d 34a9 72bc ea0e 373d
00000200: 3dbd 493d 94f2 0dbd 3233 163d c60a 213d
00000210: 0fc6 953d 21b6 a0ba 251a 14bc 3689 be3c
00000220: 8db3 ab3d 35ab 823c 5284 453d c136 493c
00000230: 303c 2fbc 78ba 1bbd fd27 2e3c 0e4a b6bc
00000240: 62b4 81bd 6bd0 903d 3e24 053d ea25 ee3c
00000250: 0d31 833d 00bf a2bd

fc3.weight f4 [2, 150]
-0.08091925 0.050747138 -0.24935144 0.05112634 -0.0268483 -0.21194325 -0.2625014 -0.08063884
-0.22920708 -0.17597017 -0.12832843 -0.19519074 -0.19620451 -0.24131536 -0.001886741 -0.1605455
-0.2420248 -0.17346102 -0.14533842 -0.12778609 -0.26264176 -0.18970019 0.093721725 -0.24306059
-0.34528735 -0.056973003 -0.27996144 0.11061743 -0.15651537 -0.0680572 -0.1661774 -0.2492013
0.15769315 -0.1234296 -0.23588665 -0.32360563 -0.038795564 0.1027607 -0.21555488 -0.028006038
-0.041640796 0.20465297 -0.13887721 0.04462197 -0.20486026 0.04245143 -0.24995686 -0.17694703
-0.3184683 0.12753417 0.11632979 -0.10557861 -0.15257365 -0.22833277 -0.046371948 -0.2569123
-0.28403676 -0.13259941 -0.20516902 -0.21189596 0.047405485 -0.18396729 0.022001147 0.040847585
-0.21331762 -0.06463951 -0.27618554 -0.09212128 0.15384808 0.14667457 -0.024167174 0.047919337
-0.18435444 -0.18329826 -0.15948287 0.17641775 -0.059475366 -0.09522099 -0.11959146 -0.1667735
-0.031721808 -0.13237941 -0.19480912 0.15710893 -0.22846921 0.02489441 -0.26206458 0.10957079
-0.077831544 0.022711487 -0.14617 0.044114232 -0.21054764 -0.25729284 0.10523219 0.035463125
-0.24092025 -0.22812025 -0.12270615 0.10176766 -0.2087984 -0.22085573 0.09765462 0.029740723
-0.39381096 -0.08362718 -0.24122737 -0.25491273 0.14753173 -0.19043292 -0.27316627 -0.19820426
0.10636187 -0.20700175 0.06184139 -0.25445884 0.036116872 -0.24292625 0.08493595 0.043181542
0.06768909 -0.29602182 0.19553307 -0.052021973 0.06787248 -0.06461903 -0.2568616 0.029005261
-0.113825366 -0.25162098 0.05741776 0.18969493 0.059699092 0.08469438 -0.087691694 -0.13432577
0.11235913 -0.24283196 0.13608448 0.0757415 -0.06946184 0.07823176 -0.23777713 -0.35710806
-0.16595969 0.16436341 -0.16128649 -0.0943977 -0.081516765 -0.15534124 0.2560371 -0.029823348
-0.087577395 -0.094277315 0.33040455 0.051378217 -0.050045185 -0.21844716 0.54429936 0.06085312
-0.13817835 -0.06511799 0.041719045 -0.08391764 0.2939992 0.3233883 -0.10666556 -0.23843892
0.12178242 -0.10543467 -0.59027404 0.1840914 -0.08694882 0.0076069115 -0.30536902 0.16451137
0.053151935 -0.078648925 0.19265832 0.4074261 0.14310473 0.019516356 -0.22534347 0.00026094858
0.10578133 0.12118003 -0.048190292 -0.081824735 -0.12540013 0.34094748 -0.18487062 -0.29260975
0.55306375 0.17333674 -0.04195112 0.064084485 0.0126372 0.015240817 0.2192895 -0.15547317
-0.057832714 0.05388312 -0.08180693 -0.011137624 0.19911526 0.06113616 0.08511277 0.4599282
-0.082342006 0.030833144 0.063604474 -0.037945036 -0.010881746 0.13586748 -0.02437927 0.14389399
0.19542156 0.055175215 -0.01520919 0.021592194 -0.020352878 0.087271966 0.26304373 -0.007811461
-0.06035844 -0.021636942 0.5444416 0.003948195 -0.22873592 -0.06892024 -0.124175906 0.1743845
-0.30684403 -0.09766686 -0.06815465 0.13255112 -0.11542631 -0.00819582 0.5157181 -0.01301943
0.34035087 0.1953679 0.009397676 0.05362921 0.051730152 -0.10308263 -0.27695024 -0.005700304
-0.3160778 -0.06311231 -0.061457746 0.027902747 0.0060623204 0.008459776 -0.20749134 -0.17057
00000000: feb8 a5bd 3bdc 4f3d fc55 7fbe da69 513d
00000010: f7f0 dbbc a707 59be 9566 86be fa25 a5bd
00000020: 43b5 6abe 8631 34be 8768 03be 15e0 47be
00000030: d6e9 48be 601b 77be 864c f7ba 0a66 24be
00000040: 59d5 77be c49f 31be 98d3 14be 5bda 02be
00000050: fb78 86be c440 42be 2df1 bf3d e0e4 78be
00000060: 81c9 b0be 865c 69bd 1b57 8fbe 648b e23d
00000070: 9145 20be 9361 8bbd 692a 2abe a02e 7fbe
00000080: 507a 213e a8c8 fcbd 458c 71be a3af a5be
00000090: 19e8 1ebd 3474 d23d 6bba 5cbe eb6c e5bc
000000a0: 8a8f 2abd 8c90 513e d435 0ebe 87c5 363d
000000b0: e3c6 51be 8de1 2d3d b1f4 7fbe 9a31 35be
000000c0: 470e a3be 5198 023e 503e ee3d 9939 d8bd
000000d0: 443c 1cbe 11d0 69be 83f0 3dbd 028a 83be
000000e0: 446d 91be 24c8 07be d417 52be 41fb 58be
000000f0: 412c 423d ec61 3cbe c03b b43c cc4f 273d
00000100: ef6f 5abe b861 84bd 3168 8dbe 15aa bcbd
00000110: 5a8a 1d3e dc31 163e 3dfa c5bc 1147 443d
00000120: 69c7 3cbe 8ab2 3bbe 7a4f 23be dba6 343e
00000130: 719c 73bd 3903 c3bd 5eec f4bd acc6 2abe
00000140: baee 01bd 788e 07be 0b7c 47be 2ae1 203e
00000150: d5f3 69be 5def cb3c 542d 86be a666 e03d
00000160: 2566 9fbd 710d ba3c 97ad 15be 20b1 343d
00000170: cd99 57be e3bb 83be f983 d73d c841 113d
00000180: ccb3 76be 5b98 69be 5d4d fbbd 906b d03d
00000190: 3fcf 55be 0128 62be 25ff c73d d1a2 f33c
000001a0: 97a1 c9be ba44 abbd 4f04 77be ec83 82be
000001b0: 8f12 173e d900 43be 73dc 8bbe 0ff6 4abe
000001c0: 41d4 d93d 44f8 53be 664d 7d3d 6e48 82be
000001d0: 49ef 133d a9c1 78be e6f2 ad3d 21df 303d
000001e0: 94a0 8a3d 2c90 97be d239 483e fe14 55bd
000001f0: ba00 8b3d fb56 84bd 5d83 83be 719c ed3c
00000200: 461d e9bd 77d4 80be e32e 6b3d 633f 423e
00000210: 0987 743d 3f74 ad3d b497 b3bd b28c 09be
00000220: 8b1c e63d f1a8 78be bb59 0b3e 5c1e 9b3d
00000230: 0242 8ebd f937 a03d d97b 73be ded6 b6be
00000240: 56f1 29be e24e 283e 4928 25be 9553 c1bd
00000250: 43f2 a6bd c611 1fbe 4b17 833e 1850 f4bc
00000260: c75b b3bd 7714 c1bd c92a a93e f771 523d
00000270: 2efc 4cbd 9db0 5fbe 3457 0b3f 1f41 793d
00000280: a07e 0dbe 955c 85bd 97e1 2a3d 03dd abbd
00000290: 1087 963e 2793 a53e 7973 dabd 5529 74be
000002a0: 1069 f93d 22ee d7bd 331c 17bf 7582 3c3e
000002b0: 3912 b2bd 6643 f93b 5459 9cbe ab75 283e
000002c0: d8b5 593d b012 a1bd 3948 453e 279a d03e
000002d0: 0c8a 123e c4e0 9f3c 70c0 66be edcf 8839
000002e0: e2a3 d83d 3c2d f83d 2f63 45bd ba93 a7bd
000002f0: e468 00be ab90 ae3e b94e 3dbe f2d0 95be
00000300: 9695 0d3f 307f 313e f0d4 2bbd ba3e 833d
00000310: 420c 4f3c 9fb4 793c 6d8d 603e 5c34 1fbe
00000320: ffe1 6cbd 8cb4 5c3d 648a a7bd 957a 36bc
00000330: dfe4 4b3e e969 7a3d 9b4f ae3d b67b eb3e
00000340: eda2 a8bd ca95 fc3c 1043 823d 416c 1bbd
00000350: 5a49 32bc d820 0b3e 09b7 c7bc f258 133e
00000360: 971c 483e 68ff 613d f72f 79bc 1de2 b03c
00000370: 14bb a6bc a5bb b23d abad 863e 49f7 ffbb
00000380: 693a 77bd f53f b1bc 8660 0b3f dc5f 813b
00000390: c039 6abe 0e26 8dbd f04f febd da91 323e
000003a0: a91a 9dbe 9005 c8bd aa94 8bbd 7bbb 073e
000003b0: a164 ecbd c347 06bc 1a06 043f 734f 55bc
000003c0: 7842 ae3e 860e 483e b6f8 193c 4daa 5b3d
000003d0: ffe2 533d fc1c d3bd 6ccc 8dbe 9ec9 babb
000003e0: f3d4 a1be 0741 81bd 1ebb 7bbd 4d94 e43c
000003f0: 6ea6 c63b df9a 0a3c 9c78 54be e7a9 2ebe

fc3.bias f4 [2]
-0.06075561 0.043468285
00000000: e0da 78bd cd0b 323d
