agent1_checkpoint_critic.pth (torch, 165855 bytes, 5 tensors)

fcs1.weight f4 [200, 52]
00000000: 3c1c ff3e d4e8 26bf 33f0 a43d 0801 9abe
00000010: 9fb3 ab3c 80e1 0ebe 7cef d9bc 144f 9abe
00000020: 4d95 153f 879c cabe abb8 3cbc 7530 923c
00000030: 7484 c63d e8e9 21bf 3581 23bc 8a8e c13c
00000040: 288e e43e 8e06 d5bc 0495 4dbe 0bf8 373f
00000050: cbc9 38be 4ea9 f3be dcec 58be 4fa1 2b3f
00000060: b426 9b3e 498b f4be ff0f 273d a0d5 27be
00000070: fd5d 653d bc13 74be d76d 1d3d bec0 55be
00000080: 16a7 aa3e 512e 82be ecdd 14be a6c5 90be
00000090: fe3d 36be 240b 0ebf ee4e 20be b2ee a5be
000000a0: 6af1 213e 1ae4 17be 4bb5 c1bd 2955 a53e
000000b0: 2fe1 6c3e 765c e2be 5db7 47bd cd9f a93e
000000c0: 1f43 96bf 0564 5d3e c35d b93f 1fe4 0cbe
000000d0: 1232 233e 174d 55be f111 63bd b2fb 673d
000000e0: ac0d 833e 2da9 e3be 2147 6d3c 9cf4 453c
000000f0: 2f65 033e 1804 c1be 3a1d b2bd 3f74 27bf
00000100: 71b5 fc3b 2597 1ebf 5b59 903c 9316 21bf
00000110: 18d1 293e b684 edbe f8a4 00bd 048e 21be
00000120: cf16 b1be 3161 3ebf d2b6 35bc c069 1dbe
00000130: 772d 74be db84 6c3f 840c da3c 448e 43be
00000140: 9e63 76be 8bdf adbe 3ee7 753c acb5 39be
00000150: 7f4d 5bbe 01b3 3f3f a2d8 43bd c9b2 4ebd
00000160: 7545 773d bf28 19bf 8544 91bd 7544 11bd
00000170: a792 973d f564 2a3f edde cabd 9859 05bd
00000180: d184 813e 39f8 2fbf c0d4 f9bc a3a5 2dbd
00000190: a30a 713f 1925 afbe c274 323f 5882 8fbf
000001a0: 7170 213e 839f 333f eef2 f43c b370 96bd
000001b0: bb69 f73d 39f5 04bd 2a0c 45bd ab62 00be
000001c0: b43a 863e 4861 c43e 1c4e b0bd 8367 efbd
000001d0: 7d97 893e b6e3 6b3e 45f9 aa3c 01f8 58be
000001e0: e319 8c3e 704e b63e 1d94 3ebd 8413 2bbe
000001f0: 97f4 e53e 2485 a13e ab99 61bd 82ad c7bd
00000200: 48c1 173e 2269 bd3e c134 b5bc 8e44 97be
00000210: 17e2 4dbd 2d25 dbbb 61d1 2bbd 66c9 adbe
00000220: 360f a53e ca3d f03e aeb0 0dbd eca8 a3bd
00000230: 67e2 97be 6aff 8a3e c6fc 37bc cd70 1bbe
00000240: 48c2 f53e 8217 003f f6bc 05ba e1fb 7bbd
00000250: bac0 febe 525c 7b3e 62f2 353c f57b 00be
00000260: 27ff 24bf bf3b 1dbe 2ed8 91bf b737 c03d
00000270: 48fa 153e 8f32 293e bf78 a2bd 0fc8 feb9
00000280: b9cf 703e c422 853d f554 8a3c 947e 8cbc
00000290: fe5d 713e 56e8 8c3e 2f7a a9bb 2500 90bd
000002a0: a051 533e ec06 b23d 02e3 9fbc c419 6ebd
000002b0: 4472 1b3e 4def 4a3e 24b2 81bd 1335 013f
000002c0: 20b4 e03e cbeb ef3d 642b 39bd 9064 f33e
000002d0: 24d4 e43e 1764 7a3e c9fb 0a3d fb9b be3d
000002e0: a72c 79be c366 1a3e c159 9c3c 39f1 cd3d
000002f0: cf4b 373f d3fd 433c 4e99 153c 95b2 67be
00000300: 6078 a3be e811 663d c40e 36bc f37b 3abe
00000310: 9b65 433f 2b7e 5cbe fe92 dc3c c98f b2be
00000320: 56ee bdbe ea6f 403e 9586 e63d c183 a2be
00000330: 2b4a 16bd 2231 123f 72ca 48bf 43b3 85be
00000340: 55b6 c1be b39a 8bbe 3f7a fc3c 42dd ca3d
00000350: 24ff 8ebe e348 843e e883 c83a 662a 273e
00000360: 33e7 3dbe 987f c1be 480c 7c3c 59db 043e
00000370: a6ab 08bd 08ae e6bd 60d7 7f3d 6d6b 163e
00000380: c41e 663c cfa8 67be 0299 c83d 42bb a2bd
00000390: 18b4 e33d 7941 cbbf 6eab 4b3c 0613 fbbd
000003a0: d437 803e 7364 20bf 79b5 5cbd fe04 b33d
000003b0: c303 4f3e 0088 913e ef67 debc c8dc 693d
000003c0: 6dde 893e 398b 14bf 166b 29bd b608 b23d
000003d0: 9dd3 c13d 58b1 76bd 7ae0 1abc 80d6 293d
000003e0: 89ea 3d3e dd73 53bf 5154 84bc 32fb 4a3d
000003f0: f252 c8bd 2ded cdbf a597 b53c a32d d13c
0.4982623 -0.6519902 0.08053627 -0.30078912 0.020959673 -0.13953209 -0.026603453 -0.30138457
0.5843094 -0.39572546 -0.011518638 0.017845372 0.09693232 -0.6324754 -0.009979536 0.023627538
0.44639707 -0.026004102 -0.20076376 0.7186286 -0.18045728 -0.47590107 -0.21184105 0.6704301
0.30302966 -0.47762516 0.04078674 -0.16390085 0.055997837 -0.23835653 0.03843483 -0.20874307
0.333306 -0.25425962 -0.14537781 -0.28275794 -0.17797086 -0.5548575 -0.1565511 -0.32408673
0.15814748 -0.14833108 -0.09458407 0.32291535 0.23132776 -0.44211167 -0.048758853 0.3312973
-1.1739234 0.21620186 1.4481739 -0.13758896 0.15937069 -0.20830189 -0.055437032 0.05663652
0.25596368 -0.44465008 0.0144822905 0.012082245 0.12831567 -0.37698436 -0.08696981 -0.6541175
0.007712059 -0.6194938 0.017620733 -0.6292507 0.16583669 -0.46390313 -0.031407326 -0.15776831
-0.34587714 -0.7436705 -0.011090951 -0.15372372 -0.23845468 0.9239022 0.026617296 -0.19097239
-0.24061438 -0.33959612 0.015008746 -0.18135709 -0.21416281 0.74882513 -0.04781402 -0.05046347
0.060368974 -0.598278 -0.07093147 -0.035465676 0.074010186 0.665603 -0.09905801 -0.032556146
0.25296643 -0.6873813 -0.030496955 -0.04239429 0.94156855 -0.3420799 0.6970941 -1.1211653
0.15765549 0.7016527 0.029900994 -0.073457144 0.12080713 -0.032460425 -0.048107304 -0.12537639
0.26216662 0.3835547 -0.08608648 -0.11689665 0.2687339 0.23036084 0.020870814 -0.21188356
0.273635 0.35606718 -0.04652797 -0.16706663 0.4491317 0.3154689 -0.05507819 -0.09749891
0.14819825 0.36994272 -0.022119882 -0.2954449 -0.050264444 -0.0066877813 -0.041947726 -0.33942717
0.32238168 0.4692214 -0.034592323 -0.07991204 -0.2966492 0.2714799 -0.0112296995 -0.15179749
0.47999787 0.5003587 -0.0005101705 -0.061519507 -0.49756414 0.24546936 0.011105152 -0.12547286
-0.6445183 -0.15354823 -1.1394098 0.09385627 0.14646256 0.16523193 -0.07933187 -0.0004859571
0.2351674 0.06500772 0.016886214 -0.0171502 0.23571011 0.27521008 -0.005172036 -0.070312776
0.20636606 0.086927265 -0.019517425 -0.05813004 0.15180308 0.19817849 -0.06332806 0.5047161
0.43887424 0.11714896 -0.045207396 0.4753766 0.446931 0.24452244 0.033931527 0.09307095
-0.2433344 0.15078263 0.019085767 0.10055775 0.7160005 0.011962372 0.009130789 -0.22626717
-0.31927776 0.05616942 -0.011111919 -0.18211345 0.7632691 -0.21532504 0.02692556 -0.34875324
-0.37095898 0.18792692 0.11256138 -0.31741145 -0.036691826 0.5710622 -0.7843391 -0.26113328
-0.3783442 -0.27266464 0.03082001 0.09905483 -0.27929032 0.25836858 0.00152981 0.16324767
-0.18545227 -0.3779266 0.015383787 0.129743 -0.03336682 -0.112636626 0.062461257 0.14689417
0.014045421 -0.22622989 0.09794809 -0.07945873 0.111183345 -1.5879356 0.012431009 -0.12259488
0.25042593 -0.62653273 -0.053884003 0.087411866 0.20216279 0.28424072 -0.027149169 0.05709532
0.2692751 -0.58024937 -0.04136189 0.08693068 0.0946419 -0.060227722 -0.009452933 0.04146433
0.185465 -0.8259867 -0.016153486 0.049555965 -0.097814456 -1.6088005 0.022167036 0.025534457

fcs1.bias f4 [200]
00000000: 959e f8be 0e5d 10bf dc7f 64bf d57d 20bf
00000010: cfb9 973e b0a3 67bf e621 5c3d 28ae 8c3e
00000020: 6845 92be 8765 f0bd 0439 babe b3f8 66bf
00000030: ac4b ee3d fafe 97be df1e 5f3e 45e5 36bf
00000040: 5d3b 11bf 588c 203e 0293 44bf be32 c4be
00000050: bfc7 a13e c81a 0abe 0cf6 dd3c 5c9b c0bd
00000060: 8840 1ebe 92bf d3be 7ceb 16bf 6a10 3ebe
00000070: 8849 04bf d88f dc3c 38a4 6d3e 2b41 57be
00000080: 067e dcbe 0fbe fbbd b50d 31bf 941f 8ebf
00000090: 230b 023f b27f 73bf 77b2 fcbe d837 58bf
000000a0: f858 a6be ea95 54be 13ae f73d c76a 81bf
000000b0: 7ac6 2abe c227 a33d 2522 92be 785a 92bf
000000c0: 71f5 30be dcb8 3cbf 2df6 09bf ebc1 58bf
000000d0: a30c 9dbe 9549 a83f 4f39 823e 8b26 c6be
000000e0: 1279 e4be c269 51bf 33cc 3fbe b892 ca3d
000000f0: d714 9a3e c14d 49be bccb eabe 808e 35bd
00000100: a37d 8ebe c973 40bd ef3a 23bf 419b 38bf
00000110: 7534 65bf 4949 e7be a76f 23bf 6a73 90be
00000120: 4ef3 33bf 06fd 1abf 8b8f 2fbe 4b82 24bf
00000130: 75e2 5cbf 67ad 35bf cd60 90bf d45d 18be
00000140: bc22 bebe f4e3 e8be 1070 88be 21a6 11bf
00000150: e3ae 90be f961 b63e e112 a9be 59c4 61be
00000160: 3f31 023d 59ae babe fea0 e43d 78e5 12bf
00000170: 8606 42be 960f 8ebe 9d3c 62bf ce39 c6be
00000180: bf90 63be 0abd 0fbf 0e8e f6bd fac8 33bf
00000190: ebd7 c43c d9ee 33bf faec ddbe 333d c13e
000001a0: 2b16 adbd 3fb5 aebe a4fb 15be 963d 20bc
000001b0: 75cf ba3d 454e 303e 28a1 86be 29f5 23bf
000001c0: db1c db3e ce71 27bf 698a 453e c85e 0e3e
000001d0: eab2 2ebf ed86 1bbe 5cb4 03bf 9ce3 e6be
000001e0: 46f1 6f3e 41f7 a5bd 8b72 eebd 55ad 81bf
000001f0: 44e1 553e 0b59 2cbf 8204 15bf b9c5 163d
00000200: c0e0 e3be 08ec e6be 1e52 a5be d2c9 cbbc
00000210: 8a26 6f3d 5aa0 37b8 6b63 70be 550a 923f
00000220: 858d 75bf 314a 86be 6b77 61bf 3f7e 1abf
00000230: bc9b 92be 34a7 af3d 6682 4bbf 6f2d b2be
00000240: 1667 82bd d1e5 2abf 1e89 0fbf e050 0fbf
00000250: c71a febd e41d 96bd 761a 18bf cd97 08be
00000260: 2d97 28be 816e fdbe ca40 aabe e786 88be
00000270: 9033 593e 09b4 e3be daf7 11be ea30 00be
00000280: 0cfe f93d c6c1 50bf 50a0 11be 705f 1dbf
00000290: 0351 85bf a9dd 47bd 67fd f3bd 0322 cdbe
000002a0: 237d 55bf 6799 0bbf 3599 62be b29c 873e
000002b0: 7dd1 a13e f428 06bf d289 683f fc06 03bf
000002c0: 7c04 7cbb aa7c fcbe 05e1 c0be 81df 31bf
000002d0: bad1 fcbe 3c2d 3fbe b8be bf3e 9e8d 2abf
000002e0: bf35 0abf 4069 d4bd 247d f93e ccb2 c1be
000002f0: f17a f3be 82ee 18bf 4090 f8be dfd8 80be
00000300: 5a1e 2cbf fd42 113f 8cca 62bf 6455 35be
00000310: 17a4 54be c506 34bf 837a adbe bcaf 00be
-0.48558488 -0.5639199 -0.892576 -0.62692004 0.29633948 -0.9048414 0.053743266 0.2747662
-0.28568578 -0.11738115 -0.36371624 -0.90223235 0.11635527 -0.2968672 0.2178912 -0.7144359
-0.56731206 0.15678537 -0.76786816 -0.38319963 0.31597707 -0.13486779 0.027094863 -0.094046324
-0.15454304 -0.41357094 -0.5895307 -0.18560949 -0.516747 0.026924059 0.23207176 -0.21020953
-0.43064898 -0.1229211 -0.6916154 -1.1103387 0.50798243 -0.9511672 -0.49354908 -0.8446021
-0.32489753 -0.20760313 0.12093749 -1.0110711 -0.16677275 0.079665676 -0.28541675 -1.1433859
-0.17281128 -0.73719573 -0.5389126 -0.84670895 -0.30673704 1.3147455 0.25434348 -0.3870128
-0.4462362 -0.81802 -0.1873024 0.09891266 0.30094025 -0.19658567 -0.45858562 -0.04432535
-0.27830228 -0.04698542 -0.637618 -0.721119 -0.8953317 -0.451731 -0.6384224 -0.28213054
-0.7029313 -0.60542333 -0.17144601 -0.6426131 -0.86283046 -0.70967716 -1.1279541 -0.14879543
-0.37135875 -0.45486414 -0.26647997 -0.5689412 -0.28258428 0.35621622 -0.33022216 -0.22047557
0.031785246 -0.36461142 0.11163519 -0.5738139 -0.18947801 -0.27746266 -0.8837374 -0.38715976
-0.22223185 -0.56147826 -0.120388135 -0.7022854 0.024028739 -0.7028633 -0.4334486 0.37742004
-0.08451494 -0.34122655 -0.14646775 -0.009780308 0.091216005 0.17217357 -0.26294827 -0.6404596
0.42795452 -0.6540803 0.1929108 0.13903344 -0.6824175 -0.15188189 -0.5144708 -0.45095527
0.23431882 -0.081038006 -0.11642941 -1.0131022 0.20886713 -0.6732337 -0.58210003 0.036809657
-0.44507408 -0.45101953 -0.32289213 -0.024876509 0.058386363 -4.377994e-05 -0.23475425 1.1409403
-0.95919067 -0.2622848 -0.8807284 -0.60348886 -0.2863444 0.08576813 -0.7949585 -0.34800288
-0.06367318 -0.6675692 -0.560686 -0.5598278 -0.12407451 -0.0732992 -0.59415376 -0.13339157
-0.16463919 -0.4949837 -0.33252555 -0.26665422 0.21211076 -0.44473293 -0.14254704 -0.12518659
0.12206659 -0.81545675 -0.1422131 -0.6147375 -1.0415348 -0.048795376 -0.11913567 -0.4006501
-0.8339407 -0.5453095 -0.22128756 0.26486737 0.3160514 -0.5240624 0.908353 -0.5118253
-0.0038454821 -0.4931386 -0.37671676 -0.69481665 -0.4937876 -0.186696 0.37450194 -0.6662234
-0.5398826 -0.10371637 0.48728287 -0.37831724 -0.47554734 -0.59738934 -0.48547554 -0.2516546
-0.6723381 0.5674284 -0.8859031 -0.17708355 -0.2076572 -0.7032283 -0.33882532 -0.12567037

fc2.weight f4 [150, 200]
00000000: 4528 21bf 36bc aebe db8f 20be 5a2e a1be
00000010: 6186 19be 3814 7cbd a7b6 14bf ba84 4a3d
00000020: 5d27 083e 62a8 583e 0d22 9fbd 96aa 613f
00000030: 8e1e 1bbe c5cb 8a3d 97ce fcbe a055 a5bf
00000040: 573f 1e3d bcf2 6ebf d5f3 f3bd 4d51 fcbe
00000050: f4d2 26bf ce79 a6be f3bf 11be abce f0bd
00000060: b3e2 c3bd e2ce 64bd adce 30be 3bcf 2b3e
00000070: 01ef ccbd fa42 563d 7bf7 31bd cdc8 49bd
00000080: cca4 8abd 44cb 9fbd b245 c1bd 9843 2cbf
00000090: 3af6 0c3e 9bc1 e63c 506b 3ebd d393 1dbf
000000a0: 064b 1bbf 7531 e4bc 0c0b 11be bb71 dcbe
000000b0: 9803 f2be 24ab a2be b8c3 ea3c 99f5 04bf
000000c0: 9d57 0d3e 3156 9bbd e9f2 f6be 3efb 01bf
000000d0: 274b 6e3d c95a 573e ed56 d83e 24ca 10bd
000000e0: 089b 913d 5336 01bf 7db0 413e d599 a7bd
000000f0: 01ba 213e ea95 1ebe ad92 a2be bf72 d1be
00000100: 7d14 72bf aeb1 8b3e ad28 fabd f160 04be
00000110: bcca ab3b 0f2f e53c e88a 16be 5196 0a3c
00000120: 1cd6 c1bd 2165 a5bd 60b6 25be 6d7d ccbd
00000130: a5e9 7e3d c843 04bf cfb4 dabe b40c 24bf
00000140: f726 4b3b ce27 41be 3ae1 073d cf93 183e
00000150: c271 81be ecbe 2b3e e704 6f3d ba2b 5bbe
00000160: 4f1d 5abd 8786 46be b1f6 02be e6b3 e13c
00000170: 649a 903e fdca 83bd 0b54 07bc 668d 163d
00000180: ca40 99bb c351 0ebf 6fa5 92bc fc68 81be
00000190: 531f f13c ed36 0fbf 4c7c a1bd a9b8 ad3d
000001a0: ec3a 0bbe 2f46 01bf 9351 cabc 82f4 c4be
000001b0: b177 243d ff90 03bf e19e 993d 61ad 62be
000001c0: 27eb 153e cc5d 42bd 788b 5cbb 5ccb 95bc
000001d0: c97e d3be 353f 4d3e 2fd0 c43d ce6f ddbe
000001e0: d7f4 7ebd 1189 e9be 3bf2 bbbd 79b6 e53e
000001f0: 8e6e b63d 5cb7 2bbf 1a90 ab3e 2337 1a3e
00000200: 803c bcbe 7658 a2be 322b b9be 752c 85bd
00000210: 637a 03bb 4ef0 b5bd 5b4b b73b 5f0c 173d
00000220: 6f1c 113e 881d 6c3e 19f0 2ebf 61f1 31be
00000230: 553a 863d 383d 8b3e cf9e a0be 5340 37bf
00000240: 3650 533d bc02 93bd ab7a c2bc c58a c5be
00000250: 68b1 b53e 57e2 8ebd c816 a7be 3212 11bd
00000260: f55b 22bd 95e4 2d3e 9022 42be 12b0 373e
00000270: 2c3c 4b3e 46e1 22be 431b 02bd 5be6 993e
00000280: d163 e5bd 32fe 353d 439c 1e3e bd93 b6be
00000290: 9747 fabd 5c5e 233e e7d9 8dbd 685c 1bbf
000002a0: baa9 3fbf 9659 4d3e 1837 a1be b1fc 90be
000002b0: 63fb 80bd dd01 d33e 3bc8 db3c 1f1c 9abc
000002c0: b2f1 8abd c0cc d4be 31ae ec3d 0703 213d
000002d0: 0e12 223e e9b8 25bd 9f61 393e 0aa3 713d
000002e0: 0025 92bc d351 5bbd 63c6 f3bf 6f56 07bd
000002f0: b016 073e 1a46 4e3c 8276 953d 1ff0 06bf
00000300: 1627 74bd 7f69 053e e6c5 26bf 2d39 173e
00000310: 9ed5 bfbd 4e87 e13e a3b5 093e 3aff 98be
00000320: a197 e2bd 9665 47be d4d2 203d e7fc 2bbe
00000330: c939 c5be 16b3 93bd f1de 65be ab7a 133c
00000340: c26c 7fbd 92a6 c8bc b784 a43d 6a26 82bd
00000350: c04b 0cbf 24d7 d0bd 3a3d 74bd c2ab 783e
00000360: d0f9 f9bb de87 10be 5953 023e c1cc d7bd
00000370: 4924 dbbd 4be3 9ebe 20c8 41be 8f64 febc
00000380: eacc 20be c49f a6be c3b5 cb3d b919 533e
00000390: 0710 32be dadd a73d 8e42 8fbd 4513 f7be
000003a0: 215b 71bd 91e4 39bd a6bf a7be 4fbb ebbe
000003b0: c3f6 2dbe ab7c 64be 5970 613d d114 ebbe
000003c0: dff3 ddbd 6e61 b1be c933 23bf 5169 b9bd
000003d0: 9d0a 3abe 9109 20bd e66b b2be a0dc 44be
000003e0: e955 983d 6ebb 08bd d6b2 e43a 4153 41be
000003f0: 86b7 4bbd 2b4b 2dbe 3974 d6be 58fa aebc
-0.6295207 -0.3412797 -0.15679877 -0.31480676 -0.14992668 -0.06154272 -0.58091205 0.049442984
0.13296266 0.21157983 -0.077701665 0.8815092 -0.15148374 0.06777147 -0.49376366 -1.2916756
0.038634624 -0.93339133 -0.11911742 -0.49280778 -0.6516564 -0.32514805 -0.14233379 -0.11758169
-0.09564724 -0.05586136 -0.1726634 0.16778271 -0.10006524 0.052309968 -0.043448906 -0.049263764
-0.06769714 -0.07802442 -0.094371215 -0.6729064 0.13765803 0.02816849 -0.04648906 -0.61553687
-0.6066135 -0.027855614 -0.1416437 -0.4305552 -0.47268367 -0.31771195 0.02865778 -0.5193725
0.13802953 -0.07584799 -0.482322 -0.5077399 0.05817714 0.21030726 0.4225382 -0.035349026
0.07109648 -0.5047352 0.18914981 -0.08183638 0.15793611 -0.15486875 -0.3175253 -0.40907857
-0.9456251 0.27283996 -0.122147895 -0.12927605 0.0052426737 0.02797654 -0.14701426 0.00845869
-0.09464666 -0.080759294 -0.16182852 -0.099848606 0.06223454 -0.51665926 -0.4271607 -0.64081883
0.0030998567 -0.1886284 0.033173777 0.14900135 -0.25282103 0.1677205 0.058354285 -0.21403399
-0.053250607 -0.19387256 -0.12789418 0.027551603 0.2824279 -0.06435201 -0.0082597835 0.03675594
-0.004676913 -0.5559351 -0.01790115 -0.2527541 0.029433882 -0.55943185 -0.07885036 0.08482487
-0.13596696 -0.50497717 -0.0246971 -0.38467795 0.04015321 -0.5139312 0.07501007 -0.22136451
0.14640485 -0.047452733 -0.0033652466 -0.018285446 -0.41307667 0.20043643 0.0961002 -0.43249363
-0.062245216 -0.45612386 -0.09177061 0.44865778 0.089078054 -0.6707666 0.33508378 0.15060095
-0.36764908 -0.31708115 -0.36165768 -0.0650262 -0.0020061962 -0.08883725 0.0055937 0.036877032
0.14171003 0.2305814 -0.6833511 -0.17377235 0.06554095 0.27195144 -0.3137116 -0.71582526
0.051590167 -0.07178256 -0.023740133 -0.38582435 0.35486913 -0.06976765 -0.32634568 -0.035417743
-0.03963848 0.16981728 -0.18958497 0.17938259 0.19847172 -0.15906247 -0.03176428 0.3005856
-0.11200679 0.044431873 0.15489297 -0.3565959 -0.12220686 0.15953964 -0.06926327 -0.60687876
-0.7486836 0.20053706 -0.31487346 -0.28317788 -0.06297948 0.4121236 0.026828876 -0.018812237
-0.06784381 -0.41562462 0.11556662 0.039309528 0.158272 -0.040459547 0.18103646 0.058993377
-0.017839909 -0.05354483 -1.9044918 -0.033041414 0.13192248 0.012589956 0.07297994 -0.52710146
-0.059607588 0.13028525 -0.6514572 0.14767905 -0.09366916 0.44048542 0.13448195 -0.29882222
-0.11064077 -0.19472346 0.03926356 -0.16795693 -0.3852065 -0.07211892 -0.22448327 0.009001414
-0.06235958 -0.02449349 0.08033126 -0.06354983 -0.54803085 -0.10197285 -0.059628703 0.2428427
-0.007628657 -0.14114329 0.12727107 -0.105371006 -0.1070028 -0.31032786 -0.18923998 -0.03105381
-0.15703169 -0.32543766 0.09946778 0.20615281 -0.17388926 0.08196612 -0.06995116 -0.4825689
-0.058924798 -0.045383994 -0.32763404 -0.46041343 -0.16988663 -0.22313182 0.055038784 -0.4591432
-0.1083753 -0.34644645 -0.6375089 -0.09053291 -0.18168111 -0.039071623 -0.34847945 -0.19224787
0.07438261 -0.033381872 0.0017448317 -0.18879415 -0.04973557 -0.16923206 -0.41885546 -0.021359608

fc2.bias f4 [150]
00000000: c7af aabe 241d 70be ad44 b3bd 0107 58bd
00000010: 8674 89bf 4d9a 3a3e 1747 823f 25e6 85bd
00000020: 2d20 60bd c64f 6ebf a22d 89be 918e ae3d
00000030: 2f45 e0bd 05e5 a4bd 7d92 99bc 3d28 2f3e
00000040: 1684 21be f20d 13be dc8c 44bf 85fb c0be
00000050: 4859 2abe fa05 89bd dc87 a3bd 3df9 16be
00000060: 2ed6 51be 6d50 22be 12d3 31be f354 0dbe
00000070: 460a f0bd c3b8 9bbd 70a4 b7be e8b4 71be
00000080: 3377 e4bd 6f76 62bd 2063 08be 065e 40bd
00000090: 3dc6 393e 0876 393d afc3 a1bd fc24 64be
000000a0: d510 db3e eda2 1abe c42d 89bd be77 98bd
000000b0: d1e0 41bd d803 2dbf 7e31 f8bd d3ab 1dbe
000000c0: 3007 1dbe 9c1c 69bc 55f0 dc3d e5ea 33be
000000d0: 495f b93e 062a a6bd d51e 20be 65cd 093e
000000e0: e896 45be 1100 16be fb46 123f 3a20 f0bd
000000f0: 3b13 e2bc 5254 b4bd 9103 5abe 2b93 06be
00000100: 9e87 01be 100f fd3e f672 e73d 0611 cebd
00000110: 9718 97be 179f c9bd 4c5c 953e 192a dcbd
00000120: 05e8 8c3d 8734 80bf 6fe0 41be 9783 cb3d
00000130: b737 643e 175b 2fbe d303 9bbe 54f4 a5bd
00000140: 3712 ffbe 11a3 11be 6733 8bbe f611 a4bc
00000150: 7a0a 2ebe 2b8b 24be aabf 01be ba9e 1abe
00000160: 207b 0bbe e9bb 00be 7741 46bd 5f8e debd
00000170: 7268 19bf 06f6 8abe fce3 673f 2d59 17be
00000180: d71b 4d3f aaee 20be b22a 26be 1a8d 3d3d
00000190: 63b3 12be e7ed 16be 92a4 8bbe 0afc 2d3f
000001a0: 80d4 c9bd 9ee6 1d3e 3568 9ebe f3f0 07be
000001b0: aad3 9abe 2917 dcbd b18b 463f fbd1 94be
000001c0: c6ca f0bd f77e f03e 4886 f2be dde8 3abe
000001d0: 4583 02be c43b c2bd a577 e2bd 285a 1ebe
000001e0: 1acd 07be f997 00be 35de b93d 3f64 68be
000001f0: dd72 0bbe e485 023c 14af c5be 94fe 22be
00000200: 59ae 28be b10b d6be 9072 9f3e d357 af3e
00000210: 38dd 88bd e95e 6bbe 2194 b33d a2d0 2ebd
00000220: 3fca c2bd c798 0cbe 9c2e f9bd c2db 74bf
00000230: d9ab 86bd c5a5 10be f0b4 8ebd 5e14 15be
00000240: ebd9 d3be 6be8 42bf 68ab 2abe 87ae 46bd
00000250: bed1 333f 6751 2dbe
-0.33337232 -0.23448616 -0.08753333 -0.052741054 -1.0738685 0.18222924 1.0177945 -0.06538037
-0.054718185 -0.93090475 -0.26792628 0.08523286 -0.10950696 -0.080514945 -0.018746609 0.17105193
-0.15773043 -0.14360788 -0.76777434 -0.37691894 -0.1663562 -0.06690593 -0.079848975 -0.14743514
-0.2049186 -0.15850993 -0.17365673 -0.13801937 -0.117207095 -0.076036 -0.35867643 -0.23604167
-0.11155548 -0.05528873 -0.13319063 -0.046964668 0.18142028 0.04527858 -0.07898652 -0.22279733
0.4278628 -0.15101214 -0.06698182 -0.07444714 -0.047333542 -0.6758399 -0.12118815 -0.15397577
-0.15334773 -0.014228012 0.10788027 -0.17570074 0.3620551 -0.08113484 -0.15636761 0.13457258
-0.19295847 -0.14648463 0.5713956 -0.11724897 -0.02759706 -0.08805145 -0.21290423 -0.13142078
-0.1264939 0.49425554 0.11301224 -0.10061841 -0.29510948 -0.09844797 0.2917198 -0.10750217
0.06880192 -1.001603 -0.18933271 0.09937208 0.22286879 -0.17124592 -0.30276355 -0.081032425
-0.49818584 -0.14222361 -0.27187654 -0.020028096 -0.16996184 -0.16068713 -0.1267077 -0.15099612
-0.13621187 -0.12571682 -0.048402276 -0.10866999 -0.59924996 -0.27140826 0.9058225 -0.14780112
0.80120605 -0.15716043 -0.16227224 0.046277143 -0.14326243 -0.1473919 -0.27273995 0.67962706
-0.09854984 0.15420005 -0.3093888 -0.13275509 -0.30239612 -0.10746605 0.775569 -0.29066452
-0.11757426 0.46971866 -0.47368073 -0.18252893 -0.12745388 -0.09484056 -0.11057977 -0.1546408
-0.13261834 -0.12557973 0.09075586 -0.22694491 -0.13618036 0.007966492 -0.38610137 -0.15917426
-0.16472758 -0.41805795 0.31142092 0.34246692 -0.06682819 -0.22985424 0.08768488 -0.042679437
-0.09511232 -0.13730155 -0.12167093 -0.95647824 -0.06575746 -0.14125736 -0.06968105 -0.1455855
-0.41377196 -0.7613589 -0.16666949 -0.048506286 0.70241916 -0.16925584

fc3.weight f4 [1, 150]
00000000: 4641 153c 3d5c 3e3c 1e60 bfbc 5c2e c73c
00000010: c2f3 63bc c970 18bc c85e 353c 938f 023c
00000020: 1b8b 8ebb 5d81 68bc 2856 98bc 40be 523c
00000030: fbe7 783c ff74 b2bc 758b bbbb 732f c23c
00000040: 65a8 4cbc 7307 2cbb 166e 10bc 6e0f 75bc
00000050: 0ed6 ea3b dded 85bc 21ca abbc 102d 0bba
00000060: 9cff c53a dc39 e93b 72bb 3abc e6c6 4c3c
00000070: f8fe 21bc 0de1 4abb 4308 e53c e773 e4bb
00000080: 5814 613c 31c4 9bbb c10a 7339 51bb 11bb
00000090: a86a 233c 0470 d6bc 4f30 273c 88cd 103c
000000a0: 4ebd 56bc 678e 813a 84c7 23ba 6981 67bc
000000b0: 3524 2d3c 03b4 8cbc 2eda 88bc 30ed 80bc
000000c0: 6f34 093b c2ed 1d3a 55ed 283c f5c3 0e3c
000000d0: 9720 e13c 40db cdbb 2d0b 4f3c 8939 333d
000000e0: e4e5 b23c 226a 8ebc f6c8 23bc 473a 843c
000000f0: 9255 24bc b0d7 a03c 55a5 e33a 85e4 033c
00000100: 25a7 cc3a 638a 64bc f691 8b3c 3ef6 9abb
00000110: 1283 ffbb 35e4 39bc 54ca b7bc d04e e33c
00000120: 1ad5 c0bc 23aa 67bc 6bde 24bb 3a57 66bb
00000130: 470a 693d 2ece 77bc 005b ca3c 8776 c03c
00000140: ae93 1dbc 6af0 83bc cfa7 94bc e2e8 5a3c
00000150: 852b 6cbc 1cf7 33ba 20e2 51bc 5833 60bc
00000160: f01d 923b 6b51 afbc fdbc b8ba fc3d d63c
00000170: 11fe 9cbc c60e b63b 008d 233c d4fe 46bc
00000180: 1efc 0d3c 43a8 6d3c c718 a0ba eea7 1e3d
00000190: 8684 d9bc c10c 9a3c 9941 78bc 2243 57bc
000001a0: 0530 d83a 330e fcbb 0a6f 19bc 70c5 dabb
000001b0: 6777 20bd 5883 4fbc 3045 263c d772 543b
000001c0: 0521 853b d5f4 53bc 1ab0 b63b 6f83 0b3c
000001d0: 9bc3 823c 008e 81bb faab 7a3c 0f1c 86bc
000001e0: 052d 18bc daa8 6fbc 4b53 433c 0a93 b9bc
000001f0: 6d3e cbbc e37e 583c 76ef 7cbc 0a9b 81bc
00000200: ffa1 7fba fac4 3f3b 90c8 d1bb 8d6c 4abb
00000210: 453f 663c 658a 60bd 83de 183d c43d a5bc
00000220: 74eb 513c 9dfb 10bc 5ff2 103c 4edd 2fbc
00000230: 6ed0 14bc c604 a1ba 0e52 203d 0aaf 523c
00000240: 3eb7 e73b c0a1 a6bb 650d 1dbb a54f a7ba
00000250: f9a0 183c 6c8b a13b
0.009109801 0.011618671 -0.023361262 0.024314098 -0.013913097 -0.009304234 0.011069961 0.007968801
-0.0043500788 -0.014190999 -0.01859577 0.012862742 0.015192027 -0.021784304 -0.0057234117 0.023704266
-0.01249132 -0.0026249557 -0.008815309 -0.014957292 0.0071666306 -0.016348774 -0.020970406 -0.0005309144
0.0015106085 0.007117493 -0.0113972295 0.012498593 -0.009887449 -0.0030956895 0.027958041 -0.0069718244
0.0137377605 -0.0047536124 0.00023178292 -0.0022236893 0.009974159 -0.02617646 0.010204389 0.008838065
-0.013106657 0.0009884358 -0.00062476867 -0.014129975 0.010567714 -0.01717568 -0.016705599 -0.0157381
0.0020935794 0.00060245034 0.010310491 0.008713712 0.02748136 -0.00628224 0.012636942 0.04375604
0.021838136 -0.017384592 -0.009996643 0.01614107 -0.010030167 0.019634098 0.0017367998 0.008050089
0.0015613778 -0.01394901 0.017037373 -0.0047290614 -0.007797607 -0.011345913 -0.022435345 0.027747542
-0.023539115 -0.014139685 -0.0025156986 -0.0035147206 0.056894567 -0.015124841 0.024701595 0.023494018
-0.009617729 -0.01610585 -0.018146424 0.013361188 -0.014414673 -0.000686513 -0.01281026 -0.013684116
0.0044591352 -0.021401128 -0.0014094409 0.026152603 -0.019164117 0.0055559603 0.0099823475 -0.012145717
0.008666066 0.014505449 -0.0012214415 0.03873437 -0.02655245 0.01880491 -0.015152358 -0.013138564
0.0016493803 -0.0076921224 -0.009364853 -0.0066763684 -0.03917637 -0.012665592 0.0101483315 0.0032417083
0.004062774 -0.0129367905 0.005575192 0.008515223 0.015962413 -0.0039536953 0.0152997915 -0.016370801
-0.009288077 -0.01462766 0.011921714 -0.022653122 -0.02481004 0.013213846 -0.015437951 -0.015820999
-0.00097516173 0.0029261694 -0.0064020827 -0.0030887455 0.014053171 -0.054819483 0.03732158 -0.020171054
0.012812484 -0.008849052 0.008846848 -0.0107339155 -0.009082897 -0.0012284748 0.039140753 0.012859115
0.0070714047 -0.0050852 -0.0023964283 -0.0012764825 0.009315723 0.0049299505
